household_power_consumption/pytorch_prediction_model.pth (torch, 369152 bytes, 19 tensors)

fc0.weight f4 [128, 7]
0	0x3fd543cb	1.6661314
1	0x3d07b091	0.03312737
2	0xbe3db5da	-0.18526402
3	0xbff4e397	-1.9131955
4	0xbbca72f6	-0.006178255
5	0xbf409b0d	-0.7523659
6	0x3bb9e49c	0.0056730043
7	0xbc57d8e5	-0.01317427
8	0xbeb24f07	-0.34825918
9	0x3c8b8fc1	0.01703632
10	0xbd9a18be	-0.075242504
11	0xbeba7501	-0.36417392
12	0xbd3eb54b	-0.046559613
13	0x3d83088f	0.06398117
14	0xbdc7c819	-0.097549625
15	0xbe87492c	-0.26423013
16	0x3c903f21	0.017608227
17	0xbeb50ffe	-0.35363764
18	0xbec17069	-0.37781075
19	0x3e6fd940	0.23422718
20	0x3de0fd09	0.109857626
21	0x3ff383d0	1.9024601
22	0xbead6c0b	-0.33871493
23	0xbdba88a2	-0.09108092
24	0xbf8a04ed	-1.0782753
25	0xbf3908b7	-0.7227892
26	0xbe0bf973	-0.13669376
27	0xbdfc48b6	-0.12318556
28	0xbf7b07ec	-0.9805896
29	0x3e7e6089	0.24841513
30	0xbde0f07a	-0.10983367
31	0x3f50e560	0.816
32	0xbe3a9341	-0.18220235
33	0xbe1f6179	-0.15564527
34	0x3f7592ef	0.9592733
35	0x3e2c7b69	0.16843952
36	0x3f0b62e2	0.5444776
37	0x3e7b2fe3	0.24529986
38	0xbfa0570c	-1.2526565
39	0xc09baee6	-4.8651
40	0xbf8f2bd7	-1.1185254
41	0x3e34c5d4	0.1765359
42	0x3e034706	0.12820062
43	0xbeaf8c5d	-0.34286776
44	0xbea68375	-0.3252217
45	0x3e6330c8	0.22186577
46	0xbec39ae9	-0.38204125
47	0x3d95feac	0.073239654
48	0xbede0807	-0.433655
49	0x3f9d10df	1.2270774
50	0xbd0b69cb	-0.03403644
51	0xbe032113	-0.12805586
52	0xbd767f69	-0.0601801
53	0xbef3c16b	-0.47608504
54	0xbeac86be	-0.3369655
55	0x3f5e9ca2	0.8695775
56	0xbdf87559	-0.12131757
57	0x3e1f5f72	0.15563753
58	0x3ca45d8e	0.020064142
59	0xbe814ef7	-0.25255558
60	0xbe3f03e0	-0.18653822
61	0xbd5be4f1	-0.053685132
62	0x3c792067	0.015205479
63	0xbe883770	-0.26604795
64	0xbdf8a04c	-0.12139949
65	0xbeecb673	-0.46232948
66	0xbedec014	-0.4350592
67	0xc0b6ccf5	-5.712519
68	0x3e481519	0.19539298
69	0x3f47a4b1	0.77985674
70	0x3e7e4a3a	0.24833003
71	0x3da25948	0.07927185
72	0xbd84952f	-0.06473767
73	0xbe0c7d8a	-0.13719764
74	0x3e84248f	0.25809142
75	0x3d6d49b1	0.057931606
76	0xbea159d1	-0.31513837
77	0x3eca0006	0.39453143
78	0x3f15deaa	0.58542883
79	0xbf2f6f51	-0.6852923
80	0x3efe80d9	0.49707678
81	0xbf9376f5	-1.1520678
82	0xbdb559a8	-0.08854991
83	0xbf26b288	-0.6511617
84	0x3dec4150	0.11535895
85	0x3ea71135	0.32630315
86	0x3e6e9ed9	0.23302783
87	0x3f6ca38a	0.9243704
88	0xbbb984b5	-0.005661572
89	0x3ed62d42	0.41831404
90	0xbdb8010b	-0.08984574
91	0xbfd45724	-1.6589093
92	0x3cd36097	0.025802894
93	0x3dd317b5	0.10307256
94	0x3fcc9cce	1.5985353
95	0x3ae4ffc0	0.0017471239
96	0x3a7299f4	0.0009254508
97	0xbd33c27d	-0.04388665
98	0x3ee5db2d	0.4489378
99	0xbf13d8cd	-0.57752687
100	0x3dfc7d86	0.12328629
101	0xbe3a8cf5	-0.18217833
102	0xbd22c1de	-0.039735667
103	0xbd199f9e	-0.03750574
104	0x3da780c6	0.081788585
105	0xbfdf6191	-1.745165
106	0x3eea1923	0.45722303
107	0xbdd320df	-0.10309004
108	0xbf75c83f	-0.96008676
109	0x3f860690	1.0470753
110	0xbe5d77c1	-0.21627714
111	0x3f124421	0.57135206
112	0xbebd64bb	-0.36990914
113	0xbe8efaec	-0.27925813
114	0x3e783266	0.24237975
115	0xbe2462a6	-0.16053256
116	0x3e9e7dac	0.30955255
117	0xbe16ac31	-0.14714123
118	0xbe8ec4ce	-0.27884525
119	0xbeb448a2	-0.35211664
120	0xbe723efb	-0.23656838
121	0xbd43ac57	-0.047771778
122	0xbe576359	-0.21033992
123	0xbe8ffb79	-0.28121546
124	0x3b6277f8	0.003455637
125	0xbe7a7a52	-0.24460724
126	0x3e746d17	0.2386974
127	0xbdcfece2	-0.10152604
128	0xbdf71aa7	-0.120656304
129	0x3cff832c	0.031190477
130	0x3d9103fd	0.07080839
131	0xbe6318e3	-0.22177462
132	0xbe397789	-0.18112005
133	0x3f44785a	0.7674614
134	0xbeb2f245	-0.34950462
135	0x3e8df400	0.2772522
136	0x3eb534e4	0.35391915
137	0x3f312ab9	0.69205815
138	0x3f1e807e	0.61914814
139	0xbe24600a	-0.16052261
140	0x3e767bca	0.2407066
141	0xbdb6b4ee	-0.08921228
142	0x3ce562b2	0.028001163
143	0xbea53d40	-0.32273293
144	0x3e3a7965	0.18210371
145	0xbda34083	-0.07971289
146	0xbe870ef3	-0.26378593
147	0x3f895129	1.0727893
148	0xbf4eb673	-0.80747145
149	0xbe00e38f	-0.12586807
150	0x3f76b1e3	0.96365184
151	0xbf845248	-1.033761
152	0xc05368aa	-3.3032632
153	0xbeeec2c4	-0.4663297
154	0x3e2230e3	0.15838961
155	0xbf0e90d1	-0.5568972
156	0xbeb7f8a4	-0.35931885
157	0xbebeabb9	-0.3724039
158	0x3e469a8f	0.19394897
159	0xbe7cfe0b	-0.24706285
160	0x3e05c7bb	0.13064472
161	0xbe4fd8a8	-0.20297492
162	0xbe330526	-0.17482433
163	0x3e3d745d	0.1850142
164	0xbe75f6a9	-0.24019875
165	0xbddcc98a	-0.10780628
166	0xbda9d34b	-0.08292254
167	0xbe965f11	-0.29369405
168	0xbc89ca31	-0.016820045
169	0x3e9c3d32	0.30515438
170	0xbea63387	-0.32461187
171	0x3ea1cb2a	0.31600314
172	0x3e135476	0.14387688
173	0xbd8c2726	-0.068434045
174	0xbe39f99f	-0.18161629
175	0x3e8a1ab4	0.26973498
176	0xbe55c9e7	-0.20877801
177	0xbe8c382d	-0.2738661
178	0x3e7b693c	0.24551862
179	0xbe0ef4dd	-0.13960595
180	0xbf1bc1e7	-0.60842746
181	0xbf340f36	-0.7033571
182	0x3f2e207b	0.6801831
183	0xbe0ced44	-0.13762385
184	0xbd8c26d2	-0.06843342
185	0x3f0f6bc4	0.5602381
186	0x3eb9f854	0.36322272
187	0x3ed92dc2	0.42417723
188	0x3f0ff414	0.5623181
189	0xbfd33833	-1.6501526
190	0x3eba8938	0.36432815
191	0xbdc14d8e	-0.094386205
192	0xbf3eef57	-0.74583954
193	0x3dc1bd3a	0.0945992
194	0x3e3383b4	0.1753071
195	0x3ec27232	0.3797775
196	0x3efb4a66	0.490802
197	0x3f4086bb	0.7520558
198	0xbef4aeb0	-0.47789526
199	0xbf34636c	-0.70464206
200	0x3fbb0f30	1.461401
201	0xbe270414	-0.1631015
202	0xbd0a04e7	-0.03369608
203	0xbd040d45	-0.032239217
204	0xbe083660	-0.13301992
205	0xbe86f568	-0.26359105
206	0x3ee20d32	0.44150692
207	0xbe23595f	-0.15952061
208	0x40004966	2.00448
209	0xbd2a9fbc	-0.04165624
210	0xbe5bab14	-0.2145198
211	0x3ead9002	0.33898932
212	0xbe943cd2	-0.28952652
213	0xbe52a9a3	-0.20572524
214	0xbe8135fb	-0.25236496
215	0xbea5e629	-0.3240216
216	0x3c90775a	0.017635036
217	0xbf7a738b	-0.97832555
218	0xbe9618cf	-0.29315802
219	0xbe578c5c	-0.21049637
220	0xbede7dd8	-0.43455386
221	0x3edd33af	0.43203494
222	0x3ed0d293	0.40785655
223	0x3dc6e837	0.0971226
224	0x3f118047	0.5683636
225	0x3eaf6af9	0.342613
226	0xbde3c570	-0.111216426
227	0xbf9475b6	-1.1598423
228	0x3e571bd5	0.21006711
229	0xbafdef09	-0.0019373606
230	0x3f6ad14d	0.9172562
231	0x3de7ed4a	0.11324556
232	0x3e40917e	0.18805501
233	0xbe674742	-0.22585776
234	0xbf967f82	-1.1757662
235	0xbfdb7711	-1.7145711
236	0x3e8a6e0f	0.27037093
237	0x3e3f650b	0.18690889
238	0xbf41d634	-0.75717473
239	0xbd83922a	-0.06424363
240	0x3ecc2670	0.39873075
241	0xbf705fee	-0.9389638
242	0xbffd1ad8	-1.9773817
243	0x3f2df167	0.67946476
244	0xbef58e52	-0.47960144
245	0x3d5baf17	0.053633776
246	0xbeb85958	-0.36005664
247	0xbe4aa9d3	-0.19791345
248	0x3e1c74a8	0.15278876
249	0xbde6337a	-0.11240287
250	0x4005ddc7	2.0916612
251	0xbd69080d	-0.056892443
252	0xbe931c16	-0.28732365
253	0xbe21535f	-0.1575446
254	0xbee5872d	-0.44829693
255	0x3ea257de	0.31707662

fc0.bias f4 [128]
0	0x3e703c60	0.23460531
1	0xbdeac2b0	-0.11462915
2	0xbe8f7dab	-0.28025565
3	0x3d8d3bf6	0.06896202
4	0xbecdfd6d	-0.4023241
5	0x3e00743d	0.12544341
6	0xbe554314	-0.2082637
7	0xbeff715a	-0.49891168
8	0xbe34fa9d	-0.17673726
9	0xbde3da7a	-0.111256555
10	0xbeb25ca3	-0.348363
11	0x3ce17a92	0.027524266
12	0xbf12f898	-0.57410574
13	0xbe3fc617	-0.18727909
14	0xbe9992ec	-0.29994905
15	0x3e83c3c1	0.25735286
16	0xbe7d0b88	-0.2471143
17	0xbe6c6983	-0.23087125
18	0xbe879dfa	-0.26487714
19	0xbf166237	-0.58743614
20	0xbe2fde11	-0.17174555
21	0xbe666902	-0.22500995
22	0xbdb7e48c	-0.08979139
23	0xbea5e9ee	-0.32405037
24	0xbed3886b	-0.41315016
25	0xbea75b7a	-0.3268698
26	0xbedc8a3d	-0.43074217
27	0x3f064613	0.52450675
28	0xbe7dd494	-0.24788123
29	0xbf51c1f2	-0.8193656
30	0xbeae8d1a	-0.34092027
31	0x3f18c2ee	0.5967244
32	0xbe6b9870	-0.23007369
33	0x3eb30c09	0.3497012
34	0x3ecae49d	0.39627543
35	0xbe99fe44	-0.30076802
36	0xbdfac2c3	-0.12244179
37	0xbe16a75e	-0.14712283
38	0xbe4f45a1	-0.20241405
39	0xbdfb09ad	-0.12257705
40	0x3e427296	0.18989024
41	0x3e8cb0e4	0.27478707
42	0x3ed05a16	0.4069373
43	0xbd639cbf	-0.055569407
44	0xbd2bd4ba	-0.04195092
45	0xbd96f382	-0.07370664
46	0xbe23e23c	-0.1600427
47	0x3edf4522	0.43607432
48	0x3d4122f3	0.04715247
49	0x3ee6027b	0.44923767
50	0xbd656f84	-0.056014553
51	0xbec28c32	-0.37997586
52	0xbeae4d87	-0.34043524
53	0xbe130f77	-0.14361368
54	0xbcac0eb8	-0.021003112
55	0xbef60be4	-0.48055947
56	0xbda8dab2	-0.08244838
57	0xbd15c082	-0.036560543
58	0xbdbe39c0	-0.09288359
59	0xbe88e4e2	-0.26737124
60	0xbe91bc71	-0.28464082
61	0x3e4360fb	0.19079964
62	0x3e5c3dfa	0.21508017
63	0xbe3a9f50	-0.18224835
64	0xbe4b9121	-0.19879581
65	0xbf012391	-0.50444895
66	0x3f111214	0.5666821
67	0x3e040092	0.12890843
68	0xbe9422e2	-0.28932863
69	0x3ea05515	0.31314912
70	0xbdfe1d64	-0.124079496
71	0xbe88eae5	-0.2674171
72	0x3ecf439e	0.40481275
73	0xbb8c11fe	-0.004274606
74	0xbe6edeea	-0.23327222
75	0x3e675fcf	0.22595142
76	0xbe67e218	-0.22644842
77	0x3c1ded75	0.009639134
78	0xbea77f53	-0.32714328
79	0xbf33ee31	-0.70285326
80	0xbe7deb01	-0.24796678
81	0xbd828055	-0.06372134
82	0x3dfea5db	0.12433978
83	0xbed68790	-0.419003
84	0xbeaeb8f5	-0.34125486
85	0xbeb5e706	-0.3552782
86	0xbf15cc0e	-0.5851449
87	0xbe9b33c0	-0.3031292
88	0xbeb7465a	-0.3579586
89	0xbe41fd9c	-0.189444
90	0x3cc5fafa	0.024167527
91	0x3e379288	0.17926991
92	0xbe9a1d1b	-0.3010033
93	0x3f00a7d1	0.5025607
94	0xbac68853	-0.0015146829
95	0xbe9d2bad	-0.30697384
96	0xbdf39b8a	-0.11894901
97	0xbe81ccdc	-0.25351608
98	0x3e93f88b	0.2890056
99	0xbe0320b5	-0.12805445
100	0xbeab1329	-0.33413056
101	0xbf00791d	-0.50184804
102	0xbebb57e1	-0.36590484
103	0x3d423004	0.047409073
104	0xbd84818d	-0.06470022
105	0x3ea2aa81	0.3177071
106	0xbde37f0d	-0.111082174
107	0x3ea83580	0.32853317
108	0xbeaf03f1	-0.34182695
109	0xbd534c92	-0.051586695
110	0x3d3a0a32	0.04541988
111	0xbeb8776b	-0.3602861
112	0xbe5f4b59	-0.21806087
113	0x3ebc6b0e	0.36800426
114	0x3dafe965	0.08589438
115	0xbea32fda	-0.31872445
116	0x3e19644c	0.14979666
117	0xbdcf6ba6	-0.10127954
118	0xbe9c440e	-0.30520672
119	0xbf02461e	-0.5088824
120	0xbe2463bc	-0.1605367
121	0xbe3fbf78	-0.18725383
122	0xbea28be4	-0.31747353
123	0xbf0b14cc	-0.5432861
124	0xbe3f4990	-0.18680406
125	0xbe8180ba	-0.25293523
126	0xbed4c59a	-0.41557008
127	0xbd2bfbc1	-0.041988138

lstm1.weight_ih_l0 f4 [256, 128]
0	0xbe009eb9	-0.12560548
1	0xbbeb2500	-0.0071760416
2	0x3d196258	0.037447304
3	0xbe40877e	-0.18801686
4	0xbd037321	-0.032092217
5	0xbea53c64	-0.32272637
6	0x3ef60519	0.48050764
7	0x3edcb119	0.43103865
8	0xb9092400	-0.00013078749
9	0xbeb144d6	-0.3462283
10	0xbd82da88	-0.06389338
11	0x3e5da256	0.21643957
12	0x3d9c9e22	0.07647349
13	0x3e57130f	0.21003364
14	0xbea679d2	-0.32514817
15	0x3f13eeec	0.5778644
16	0xbca8910c	-0.020576976
17	0x3cf6a540	0.030108094
18	0x3d88dede	0.066831335
19	0xbe5ee100	-0.21765518
20	0xbe7672b5	-0.24067195
21	0xbf0a06eb	-0.53916806
22	0xbc4cbdcf	-0.012496426
23	0xbcfaa118	-0.030594394
24	0xbd8b1dca	-0.06792791
25	0xbf108a62	-0.56461155
26	0xbe51c224	-0.20484215
27	0x3f59ff16	0.85154855
28	0xc00446bb	-2.066817
29	0x3e877949	0.2645972
30	0xbc816468	-0.015794948
31	0xbeffc815	-0.49957338
32	0xbe283ee7	-0.16430245
33	0x3d5237c1	0.051322702
34	0x3deefa04	0.116687804
35	0xbd711448	-0.058857232
36	0xbcab02a3	-0.02087528
37	0xbd82d18b	-0.063876234
38	0xbea51199	-0.32239988
39	0xbf418ed5	-0.7560857
40	0xbf84269f	-1.0324286
41	0xbf4f89d5	-0.8106969
42	0x3df4b1d3	0.1194798
43	0xbdfd620e	-0.12372218
44	0x3ef1fbc5	0.47262397
45	0xbe0276bb	-0.12740605
46	0x3deddbd2	0.11614193
47	0x3ecabf7d	0.3959922
48	0x3e962322	0.2932368
49	0xc093a6a6	-4.614093
50	0x3ed0aa09	0.40754727
51	0xbe8d6672	-0.27617222
52	0xbec13fbf	-0.37743947
53	0xbde49e69	-0.11163027
54	0x3e9d0e00	0.30674744
55	0xbdfaf0e4	-0.122529775
56	0x3d64c272	0.0558495
57	0x3d41fa2d	0.047357727
58	0x3cc7b14b	0.024376532
59	0xbe39a177	-0.18128
60	0xbd4fafc8	-0.050704747
61	0x3e2dd489	0.16975607
62	0xbfba2682	-1.4543002
63	0x3e198b85	0.14994629
64	0xbe48aa08	-0.19596112
65	0xbf285450	-0.6575365
66	0x3e8b17bf	0.27166554
67	0xbff86be2	-1.9407923
68	0x3d3fca7a	0.046823956
69	0xbf8287f8	-1.0197744
70	0xbccd6175	-0.025070885
71	0x3ddce564	0.1078594
72	0xbf0d01d2	-0.550809
73	0xbe5c4f96	-0.21514735
74	0x3e66d2fa	0.22541419
75	0x3ee6a06f	0.45044276
76	0xbd4b0fe8	-0.049575716
77	0x3dddbe3d	0.10827301
78	0x3d0b829e	0.034060113
79	0xc01f93d8	-2.4933987
80	0x3cca6c38	0.024709806
81	0xbee58c7d	-0.44833747
82	0x3ee5c842	0.44879347
83	0xbc98b86e	-0.01864263
84	0x3dc411d6	0.095737144
85	0xbf064872	-0.5245429
86	0xbf1deaff	-0.616867
87	0xbd4ab920	-0.049492955
88	0x3d25c6d8	0.040472835
89	0x3e8bf9b7	0.27338955
90	0xbeec3c4b	-0.4613975
91	0x3f8e9b78	1.1141195
92	0x3cb4e7d0	0.022083193
93	0xbe617279	-0.22016324
94	0xbeab827b	-0.33497986
95	0xbc0627cc	-0.008188199
96	0xbf1e32c6	-0.61796224
97	0xbdeeacb5	-0.11654035
98	0x3f965397	1.174426
99	0xbd8488b6	-0.06471388
100	0x3db45f37	0.08807223
101	0xbdce5295	-0.10074345
102	0x3e8d48a6	0.2759449
103	0xbdb9c9e3	-0.0907171
104	0x3c83eab4	0.016103126
105	0x3e01f699	0.12691726
106	0x3dd7ada8	0.10531169
107	0x3e2f6dc1	0.17131712
108	0x3dd5c140	0.1043725
109	0x3dbddc1a	0.09270497
110	0xbf501877	-0.8128733
111	0x3d1e79a4	0.038690224
112	0x3abceb00	0.0014413297
113	0x3e9a0e71	0.30089143
114	0xbf40de41	-0.7533913
115	0xbdc27cb7	-0.09496444
116	0xbe0fe46a	-0.14051977
117	0xbe1084c4	-0.14113146
118	0x3defd98a	0.11711414
119	0x3ef929c9	0.48664692
120	0xbdfad90a	-0.12248428
121	0x3dacc357	0.084356956
122	0x3e739650	0.23787808
123	0xbda6647a	-0.08124633
124	0xbe61ec39	-0.22062768
125	0x3d68c3bc	0.05682729
126	0xbf1218bb	-0.57068986
127	0xbd5c92c4	-0.053850904
128	0xbf806975	-1.0032183
129	0x3d993e1c	0.074825495
130	0x3dd605ee	0.1045035
131	0xbe391504	-0.18074423
132	0x3e899ce7	0.2687752
133	0xbcd2190b	-0.025646707
134	0x3da5c0d3	0.08093419
135	0xbf329070	-0.69751644
136	0xbcfa7a30	-0.030575842
137	0xbd6d9f89	-0.058013473
138	0xbd6d276c	-0.057898924
139	0xbdc06cd8	-0.0939576
140	0xbeb6b556	-0.35685223
141	0xbec6913d	-0.38782683
142	0xbf02373b	-0.50865525
143	0xbe8e2167	-0.2775986
144	0x3d5ed4ef	0.054402288
145	0x3d5a62ac	0.053316757
146	0xbbd4e0c3	-0.0064965202
147	0xbeb78333	-0.35842285
148	0xbdd26110	-0.102724195
149	0xbcb18091	-0.02166775
150	0xbd500db4	-0.05079432
151	0xbd9bd812	-0.076095715
152	0x3c376127	0.0111925965
153	0xbe8d38bb	-0.27582344
154	0xbf94e633	-1.1632751
155	0x3f1219fd	0.57070905
156	0xbd0009c6	-0.03125932
157	0xbfad50a6	-1.3540237
158	0x3d44414c	0.047913834
159	0x3e7ab8ed	0.24484606
160	0xbdebd222	-0.11514689
161	0x3e46e5b0	0.19423556
162	0x3ef8097a	0.4844473
163	0xc0869678	-4.205868
164	0x3d526952	0.051369973
165	0xbd7ba7a0	-0.061439157
166	0xbe27552b	-0.16341083
167	0xbf910a6e	-1.1331308
168	0xbe9495b1	-0.29020455
169	0xbf48e048	-0.78467226
170	0x3dd5b895	0.10435597
171	0x39bdf54c	0.0003623165
172	0x3e7c006b	0.24609534
173	0x3daee8ae	0.08540474
174	0x3d21cd28	0.039502293
175	0x3e16552d	0.1468093
176	0x3e38b1ad	0.18036528
177	0x3fd00f35	1.6254641
178	0x3c9224c1	0.017839791
179	0xbe5d4646	-0.21608838
180	0xbe2bf42d	-0.16792364
181	0x3cf2378f	0.029567508
182	0xbe06f9a1	-0.13181163
183	0xbd5159d2	-0.05111105
184	0xbe33b0ca	-0.17547908
185	0xbcf56f6f	-0.029960362
186	0xbe08293c	-0.1329698
187	0xc03e7d43	-2.9763954
188	0x3d40ffd9	0.047118995
189	0xbe9e48e5	-0.3091499
190	0xbf88ed5c	-1.0697436
191	0xbe60d107	-0.21954738
192	0xbe655950	-0.22397351
193	0xbea43b3c	-0.32076442
194	0xbf4dab9b	-0.80339974
195	0x3d0351b4	0.03206034
196	0xbd287d1d	-0.041134942
197	0x3f0a422c	0.5400722
198	0x3dbd2db9	0.092372365
199	0xba5bec00	-0.0008389354
200	0x3e8cbb2f	0.2748656
201	0x3d91316b	0.07089504
202	0x3e2ef3a3	0.17085128
203	0x3db9bfe9	0.09069807
204	0xbdfe8624	-0.12427929
205	0x3d976900	0.07393074
206	0xbe0644a5	-0.13112123
207	0xbec9a984	-0.39387143
208	0xbd916354	-0.070990235
209	0xbd8bd98f	-0.068286054
210	0x3d4517f1	0.048118535
211	0xbec21d39	-0.3791292
212	0xbee20eae	-0.44151825
213	0xbf62f786	-0.8865894
214	0xbf209c7a	-0.62738764
215	0x3ddded04	0.10836223
216	0x3da09aa4	0.07841995
217	0xbd637fad	-0.055541683
218	0xbe807891	-0.25091985
219	0xbe374319	-0.1789669
220	0x3d835b68	0.06413919
221	0x3f2734a1	0.6531468
222	0xbdd56e23	-0.104213975
223	0x3d502af9	0.050822232
224	0xbec5a269	-0.38600472
225	0xbd2541a0	-0.040345788
226	0xbed6365a	-0.41838342
227	0x3900ea35	0.0001229428
228	0x3cd6eac5	0.026234994
229	0x3d84107e	0.06448458
230	0x3de199ca	0.11015661
231	0x3f1c994b	0.61171407
232	0x3dc33c01	0.09532929
233	0x3e868072	0.2626987
234	0xbe98ed86	-0.29868716
235	0xbe9c7302	-0.30556494
236	0x3df68538	0.12037128
237	0xbdcd4332	-0.10022582
238	0xbef24bf0	-0.4732356
239	0x3dcb0522	0.099130884
240	0x3ccc3db0	0.024931759
241	0xbed43458	-0.41446185
242	0xbea4fae4	-0.32222664
243	0xbe5b3991	-0.21408679
244	0x3dd4a1a0	0.1038239
245	0xbf16ed26	-0.5895561
246	0xbd32d7a8	-0.043662697
247	0xbf243187	-0.6413807
248	0x3d456470	0.048191488
249	0xbdbb1e48	-0.09136635
250	0x3de3cd1d	0.11123107
251	0xbdf46e5f	-0.11935114
252	0xbd0b47b0	-0.034003913
253	0x3d1306a4	0.035895005
254	0xbe33e023	-0.1756597
255	0xbdad52e8	-0.08463079

lstm1.weight_hh_l0 f4 [256, 64]
0	0x3e83a919	0.2571495
1	0x3e9a997e	0.3019523
2	0xbf2dd2ab	-0.6789958
3	0xbe90661f	-0.28202912
4	0x3f93c068	1.1543093
5	0x3c44ad77	0.012004248
6	0x3f4df6ed	0.80454904
7	0xbed71f72	-0.42016178
8	0xbea22ea0	-0.31676197
9	0xbf540401	-0.8281861
10	0xbdeecdb5	-0.11660329
11	0xbd0ae4f2	-0.033909746
12	0xbf7682e5	-0.9629348
13	0xbfcbad11	-1.5912191
14	0xbcebc754	-0.02878157
15	0xbe3488ce	-0.17630312
16	0xbf941603	-1.1569217
17	0xbd8b263a	-0.067944005
18	0xbf8c6724	-1.0968976
19	0xbec1f494	-0.3788191
20	0xbf8971e2	-1.0737879
21	0x3efcf915	0.49408785
22	0xbf2316f2	-0.63706887
23	0xbced3daa	-0.028960068
24	0xbdd5100c	-0.10403451
25	0x3ff836e0	1.9391747
26	0x3f353efc	0.7079923
27	0x3d0a9ce9	0.033841047
28	0xbf1343cb	-0.5752532
29	0x3f131154	0.57448316
30	0x3f0b76f5	0.5447839
31	0xbeb3c691	-0.35112432
32	0xbf9bdc5a	-1.2176621
33	0xbf1ac3b7	-0.6045489
34	0xbfca8457	-1.5821637
35	0xbf9377bd	-1.1520916
36	0x3f96627c	1.1748805
37	0x3f1c5442	0.6106607
38	0xbe5af2de	-0.21381709
39	0x3e9e8041	0.30957225
40	0xbf088969	-0.5333467
41	0x3f81f24c	1.0152068
42	0x3fbddcb5	1.483298
43	0x3f45529c	0.77079177
44	0xbf311bdb	-0.6918313
45	0xbd17513c	-0.036942706
46	0xbef76c4c	-0.4832481
47	0xbf0dc261	-0.55374724
48	0xbec9d543	-0.39420518
49	0x3e2344cd	0.15944214
50	0x3ec24ae3	0.3794776
51	0x3c846a55	0.016163984
52	0x3e7882d0	0.24268651
53	0x3f282d29	0.6569391
54	0x3f5d639f	0.86480135
55	0x3f5b61b0	0.85695934
56	0x3e4f5f0f	0.20251106
57	0x3e201bb5	0.1563557
58	0xbf66a3b0	-0.9009352
59	0x3e974daf	0.29551455
60	0xbe513fab	-0.20434444
61	0x3fbc2651	1.4699193
62	0xbfc27445	-1.5191733
63	0xbcac546c	-0.02103635
64	0xbf32e6d5	-0.6988347
65	0x3ec3a4b9	0.3821161
66	0x3df30471	0.118660815
67	0x3eb1d121	0.34729865
68	0xbf086298	-0.5327544
69	0x3f0859e6	0.53262174
70	0xbf5772fd	-0.84159833
71	0x3ed70c51	0.42001584
72	0xbf63b43b	-0.88946885
73	0x3e933099	0.28748015
74	0xbef7d506	-0.4840471
75	0xbea838bc	-0.32855785
76	0x3ec419a0	0.383008
77	0x3eb2b75c	0.34905517
78	0xbe17c0ac	-0.14819592
79	0xbeacda21	-0.3376017
80	0x3f55c89f	0.8350925
81	0x3eec591a	0.4616173
82	0x3f288f31	0.6584349
83	0x3ee2a0fe	0.44263452
84	0x3dae7161	0.08517719
85	0xbf094498	-0.5362029
86	0x3ecae81d	0.39630213
87	0x3fb30f7b	1.3989099
88	0x3f420c54	0.7580006
89	0x3eae3b44	0.3402959
90	0xbdd9d2ba	-0.10635896
91	0xbca8cb15	-0.02060465
92	0x3eb3fb73	0.35152778
93	0x3eafcf98	0.3433807
94	0xbefc606f	-0.49292323
95	0xbfe7c5e4	-1.8107266
96	0xbfb151f5	-1.3853136
97	0xbf98c10c	-1.1933913
98	0x3e8e17c9	0.27752522
99	0xbe66a575	-0.22524054
100	0x3f2a91e8	0.66628885
101	0x3f72c347	0.9482922
102	0xbf472a03	-0.7779848
103	0xbe329d55	-0.1744283
104	0x3f744711	0.9542094
105	0x3f912036	1.1337955
106	0x3f447100	0.76734924
107	0x3eb9adc7	0.36265394
108	0xbfb9482b	-1.4475149
109	0x3f76e263	0.9643919
110	0xbe8faf5b	-0.28063473
111	0xbee258cc	-0.44208372
112	0x3fc229da	1.5169022
113	0xbf86f07c	-1.054214
114	0xbfbce984	-1.4758763
115	0xbf91d9c9	-1.1394588
116	0x3dc63af4	0.09679213
117	0xbdf87fca	-0.12133749
118	0xbf8e9b48	-1.1141138
119	0xbf2ca31a	-0.67436373
120	0x3ac1a6f1	0.0014774484
121	0x3f55430d	0.83305436
122	0xbf8f32d6	-1.1187389
123	0x3eca9fe1	0.39575103
124	0xbf0a525e	-0.5403193
125	0x3fc3a111	1.5283529
126	0xbf4cefc6	-0.80053365
127	0x400d06f9	2.2035506
128	0xbdcc962d	-0.09989581
129	0xbeec103a	-0.4610613
130	0x3e1f1fa9	0.15539421
131	0x3e905461	0.28189376
132	0x3e43f5f1	0.19136788
133	0x3f9ad1eb	1.2095312
134	0x3d8fc192	0.070193425
135	0xbec24304	-0.37941754
136	0xbf36e7b7	-0.7144732
137	0x3eac68f5	0.33673826
138	0x3e2807b6	0.16409191
139	0xbf2ae1d3	-0.6675083
140	0xbeae53c4	-0.34048283
141	0xbef89dba	-0.48557836
142	0x3e795a1d	0.24350782
143	0xbdada733	-0.08479156
144	0xbf3d9fdc	-0.7407205
145	0xbfc3c99f	-1.5295905
146	0xbebad9aa	-0.3649419
147	0x3da13fe8	0.07873517
148	0xbf5d96d2	-0.8655826
149	0xbef040b6	-0.4692437
150	0x3f8835b8	1.0641394
151	0x3ec4ba27	0.38423273
152	0xbe95a3c7	-0.29226515
153	0xbecebdee	-0.4037928
154	0x3dd90b25	0.10597829
155	0x3d8270b1	0.063691504
156	0x3c901e0c	0.017592452
157	0xbf1728f4	-0.59046865
158	0x3f05bcb9	0.5224109
159	0x3e9fd1f9	0.31214884
160	0xbdd8b6d8	-0.1058175
161	0x3f8da06f	1.1064585
162	0x3e1e79af	0.15476106
163	0x3f03d316	0.51493967
164	0xbe83a784	-0.25713742
165	0xbfc3ebaa	-1.5306294
166	0x3f2c009c	0.6718843
167	0x3e8d2a0b	0.2757114
168	0x3cb851de	0.022499975
169	0x3ec5c974	0.3863026
170	0xbf125aaf	-0.5716962
171	0xbf3a865d	-0.7286127
172	0x3e7daf84	0.24773985
173	0xbe084dbd	-0.13310905
174	0x3e050aac	0.12992352
175	0x3ef8eea6	0.48619574
176	0xbda392ef	-0.0798701
177	0x3f114c68	0.5675721
178	0xbe982d24	-0.2972194
179	0xbdb3c14c	-0.08777103
180	0x3f44d353	0.76884955
181	0xbf4211cc	-0.75808406
182	0xbc9619ab	-0.018322786
183	0x3efd79b7	0.49506924
184	0x3f078f17	0.5295271
185	0x3df4849b	0.11939355
186	0xbf53b99d	-0.827051
187	0xbf57ef87	-0.84349865
188	0x3e74e59a	0.23915711
189	0xbe1a5918	-0.15073049
190	0x3f143673	0.5789558
191	0xbf6ee5c6	-0.93319356
192	0x3e90b270	0.28261137
193	0x3f35575e	0.70836437
194	0xbed68596	-0.41898793
195	0x3fc083dd	1.5040241
196	0xbe697f2e	-0.22802421
197	0xbe8a7d0f	-0.27048537
198	0xbdcffb33	-0.10155334
199	0xbea2ebcb	-0.3182052
200	0x3f2217a3	0.63317317
201	0xbd413729	-0.047171745
202	0xbf45d9b1	-0.77285296
203	0x4003c6dd	2.0590127
204	0xbe837fa2	-0.25683314
205	0xbd4140ae	-0.047180824
206	0xbe9f7815	-0.31146303
207	0xbf9ee047	-1.2412194
208	0xbe868a2f	-0.262773
209	0xbf3e4057	-0.74316925
210	0xbf8100e4	-1.0078397
211	0xbf7d6278	-0.98978376
212	0xbf884de6	-1.0648773
213	0xbe3f8513	-0.18703108
214	0x3e110926	0.14163646
215	0xbe148c3c	-0.1450662
216	0x3f90ad2c	1.1302848
217	0x3ec0da2f	0.3766646
218	0x3f4563bd	0.77105314
219	0x3ec27aaa	0.3798421
220	0x3f3e27f2	0.742797
221	0xbe7b6057	-0.2454847
222	0xbdaff6b4	-0.08591977
223	0xbf80ce35	-1.0062929
224	0x3ccffe7e	0.025389906
225	0x3f0dbd46	0.55366933
226	0xbf83ea59	-1.0305892
227	0xbc3d6443	-0.011559549
228	0xbe1045a2	-0.14089063
229	0x3e8229c0	0.25422478
230	0xbdb082b7	-0.08618682
231	0xbe8bc6db	-0.27300152
232	0xbebad308	-0.3648913
233	0x3eba1114	0.36341155
234	0x3f07a287	0.5298237
235	0x3f498d94	0.78731656
236	0x3cdd0b82	0.026983026
237	0xbf401211	-0.7502757
238	0x3e2c9783	0.16854672
239	0xbe004736	-0.12527165
240	0xbe1d4621	-0.15358783
241	0x3edcaf33	0.43102416
242	0xbf9c55c2	-1.2213671
243	0xbf1c96df	-0.6116771
244	0x3f9e83bc	1.2383952
245	0xbf4c8953	-0.7989704
246	0xbe73872a	-0.2378203
247	0xbee32ef7	-0.4437177
248	0xbf062fea	-0.5241686
249	0xbf183274	-0.59451985
250	0xbed451be	-0.41468614
251	0x3e8ffc7c	0.28122318
252	0x3f85b4a0	1.0445747
253	0xbf103fcd	-0.5634735
254	0xbddc111a	-0.10745449
255	0xbeb57658	-0.35441852

lstm1.bias_ih_l0 f4 [256]
0	0xbf0b25d1	-0.5435458
1	0xbeaf8d60	-0.34287548
2	0xbf1b06fb	-0.60557526
3	0xbe8f7ea5	-0.2802631
4	0xbe1df9b9	-0.15427293
5	0xbdbbc9e9	-0.09169371
6	0xbee86cf5	-0.45395628
7	0xbecac9b4	-0.39607012
8	0x3f492513	0.78572196
9	0xbf2b7463	-0.6697447
10	0xbe93e99c	-0.28889167
11	0xbf441ef3	-0.76609725
12	0xbf339ad0	-0.701581
13	0xbe3b325a	-0.18280926
14	0xbe8ab6c2	-0.27092558
15	0xbf10eb7a	-0.5660931
16	0xbe02f07f	-0.12787054
17	0xbeb68cf3	-0.3565441
18	0xbda02369	-0.07819254
19	0xbed05958	-0.40693164
20	0xbf00ecd6	-0.5036138
21	0xbf0e8422	-0.5567037
22	0xbf07530e	-0.52861106
23	0xb98a3a11	-0.00026364674
24	0x3e01a181	0.12659265
25	0xbe9baff6	-0.30407685
26	0xbee8d23d	-0.454729
27	0xbeb2273b	-0.34795555
28	0xbf244d1a	-0.6418015
29	0xbf2d405f	-0.6767635
30	0xbe8dcb27	-0.27694055
31	0xbf36fa20	-0.7147541
32	0xbedb3cc0	-0.42819786
33	0xbf8b3cbb	-1.0877908
34	0xbf4b66ed	-0.7945393
35	0xbf6576b6	-0.89634264
36	0xbf493ad9	-0.7860542
37	0xbe229efe	-0.15880963
38	0xbc90f89f	-0.017696677
39	0xbe061a4b	-0.13095967
40	0x3e5805dd	0.21095987
41	0xbe79eb87	-0.24406253
42	0xbf04b60c	-0.5184028
43	0xbf42116b	-0.7580783
44	0xbde625ee	-0.11237703
45	0xbf338805	-0.70129424
46	0xbf2ed062	-0.68286717
47	0xbd06950e	-0.032856993
48	0xbe1254f4	-0.1429022
49	0xbec11507	-0.37711355
50	0x3dee6da6	0.116420075
51	0xbe8f945b	-0.28042874
52	0x3e943d21	0.28952888
53	0xbe9ec777	-0.31011555
54	0xbf0a0b7c	-0.53923774
55	0xbeb80469	-0.35940865
56	0xbeb3dd33	-0.351297
57	0xbe87e8d9	-0.26544836
58	0xbf2735e0	-0.6531658
59	0xbe1bff53	-0.15234117
60	0xbf5cf5f0	-0.8631277
61	0xbeb39881	-0.3507729
62	0xbf3871f6	-0.7204889
63	0xbf113dfa	-0.56735194
64	0x3de77ea6	0.11303453
65	0xbf0be101	-0.54640204
66	0xbfb6e319	-1.4288055
67	0x3eb15656	0.34636182
68	0xbf0393f8	-0.5139766
69	0xbdc17f34	-0.0944809
70	0xbee2422e	-0.44191116
71	0x3ed2df30	0.41185904
72	0xbf057f2a	-0.5214716
73	0xbf0f0146	-0.5586132
74	0xbe572f30	-0.21014094
75	0x3ec3f95f	0.38276193
76	0xbd2b124c	-0.041765496
77	0xbf2f1856	-0.6839651
78	0x3e21e473	0.15809803
79	0xbf3a5614	-0.72787595
80	0xbed23cf6	-0.41062135
81	0x3de35537	0.11100238
82	0xbe5d6264	-0.21619564
83	0xbf05c331	-0.52250963
84	0xbed7ecc7	-0.42172834
85	0xbe68e685	-0.22744186
86	0xbf3492db	-0.70536584
87	0xbf3ae02d	-0.72998315
88	0x3d1393d9	0.03602967
89	0xbf3cfdc3	-0.7382471
90	0xbea1fd9d	-0.31638804
91	0xbf0d87b9	-0.5528522
92	0x3e0602ee	0.13087055
93	0xbe0d63b1	-0.1380756
94	0x3eaeec78	0.34164786
95	0xbe45ca93	-0.19315557
96	0xbed51843	-0.41620073
97	0x3f22519e	0.6340579
98	0x3f667a57	0.90030426
99	0xbf459214	-0.7717602
100	0x3f1fc71a	0.6241318
101	0xbf1e79fb	-0.6190488
102	0xbefdb79a	-0.4955414
103	0xbeca65a3	-0.39530668
104	0xbf3f58b7	-0.74744743
105	0xbe4a6b11	-0.19767405
106	0xbe0667df	-0.13125561
107	0xbe0afb2d	-0.13572378
108	0x3e7e1167	0.24811326
109	0xbf0e67aa	-0.5562693
110	0xbeb57ba7	-0.35445902
111	0xbf1ef040	-0.6208534
112	0xbf196516	-0.5991987
113	0xbf1dc663	-0.6163084
114	0x3ce2642c	0.027635656
115	0xbce020da	-0.027359415
116	0xbf15298e	-0.5826653
117	0xbe5bf666	-0.21480712
118	0xbeaa15c8	-0.33219743
119	0x3d1f0249	0.03882054
120	0xbda58f43	-0.08083966
121	0xbec9beb9	-0.39403322
122	0xbc39c717	-0.011338971
123	0xbff1b2e7	-1.8882722
124	0x3de9d9de	0.11418508
125	0xbf6514f3	-0.8948509
126	0x3f03ca45	0.51480514
127	0x3e95bf0f	0.2924733
128	0x3ebdd59e	0.3707704
129	0xbde10491	-0.10987199
130	0xbd4ab65e	-0.049490325
131	0x3ec29bfc	0.38009632
132	0x3e5917e7	0.21200524
133	0xbe9a2e47	-0.30113432
134	0x3eb4acfa	0.3528822
135	0x3ece3b52	0.40279633
136	0x3e9d7d71	0.30759767
137	0x3e84ba4f	0.25923392
138	0xbe9cb345	-0.30605522
139	0x3e4988dd	0.19681115
140	0xbeb6ff88	-0.3574183
141	0x3dc112fb	0.09427448
142	0xbcd2b59d	-0.025721366
143	0x3e8b1784	0.27166378
144	0xbe30e7ba	-0.17275897
145	0x3ee03a2e	0.43794388
146	0xbe2f7830	-0.17135692
147	0xbcc98b42	-0.024602536
148	0xbecce2b2	-0.40016705
149	0x3ea304a3	0.31839475
150	0xbe2d88cc	-0.16946715
151	0xbe346714	-0.17617446
152	0x3e86c00b	0.26318392
153	0x3e9d5cc3	0.30734834
154	0x3eab4749	0.33452824
155	0xbc52e8db	-0.0128729
156	0x3f206fe8	0.62670755
157	0xbd21f685	-0.03954174
158	0xbe0c23fb	-0.136856
159	0x3eace639	0.33769396
160	0x3e192189	0.14954199
161	0xbdfdce1f	-0.1239283
162	0x3cee378a	0.029079217
163	0xbe01bd1b	-0.12669794
164	0xbd13015e	-0.035889976
165	0xbdee0a46	-0.11623053
166	0x3e935464	0.28775322
167	0x3eabb389	0.33535412
168	0xbd17170a	-0.036887206
169	0xbf0d729f	-0.5525302
170	0xbea18bcf	-0.31551978
171	0x3e4e1de5	0.20128591
172	0xbc26fb1e	-0.010191707
173	0xbe28e9f4	-0.16495496
174	0x3ea54320	0.32277775
175	0x3e37b338	0.1793946
176	0xbe48c1fd	-0.1960525
177	0xbe9445be	-0.2895946
178	0x3e2de459	0.16981639
179	0x3e775c13	0.24156217
180	0x3e82fa37	0.25581524
181	0x3d816636	0.06318323
182	0xbe2b5dba	-0.16734973
183	0x3f03f3ff	0.51544183
184	0x3e482059	0.1954359
185	0xbd976200	-0.07391739
186	0x3dbe6c7c	0.092980355
187	0xbd48d8a1	-0.04903472
188	0xbca0c0eb	-0.01962324
189	0xbe2882e8	-0.16456187
190	0xbc98abe6	-0.018636655
191	0xbd844f5d	-0.0646045
192	0x3da0a72b	0.07844385
193	0x3e29859a	0.16554871
194	0xbf4243af	-0.75884527
195	0xbe298821	-0.16555835
196	0xbee4831b	-0.44631276
197	0xbec8d2cc	-0.39223325
198	0xbd6a6b58	-0.057231277
199	0xbdd011cc	-0.101596445
200	0x3eba1cbf	0.36350057
201	0xbf0b9f17	-0.54539627
202	0xbdb685b0	-0.089122176
203	0xbd52ac7e	-0.051434033
204	0xbed8a6ba	-0.42314702
205	0x3d164505	0.036686916
206	0xbe5b30b5	-0.21405299
207	0xbd07618c	-0.033052012
208	0xbeae548a	-0.34048873
209	0x3d023462	0.031788237
210	0xbdae323e	-0.08505677
211	0xbf179d0a	-0.59224
212	0xbeb93603	-0.3617402
213	0xbefa9b31	-0.48946527
214	0xbe3f5098	-0.18683088
215	0x3d8019f4	0.0625495
216	0xbe088efd	-0.13335796
217	0xbe9d3430	-0.30703878
218	0xbd322ab4	-0.043497756
219	0xbd8794e0	-0.066201925
220	0x3e5be4b1	0.21473958
221	0xbdb411c0	-0.08792448
222	0x3d4d0f43	0.050063383
223	0xbf3e8d0b	-0.74433964
224	0xbd6eb6fb	-0.058279973
225	0x3ef9d5f0	0.48796034
226	0xbd8101c0	-0.06299162
227	0xbf114b9b	-0.5675599
228	0xbea0aebf	-0.3138332
229	0xbec87cce	-0.39157718
230	0xbddd762b	-0.108135544
231	0xbda10160	-0.078615904
232	0x3ef6e507	0.4822161
233	0xbd31fb03	-0.043452274
234	0xbe946311	-0.28981832
235	0xbee35162	-0.44398028
236	0xbf092192	-0.5356685
237	0xbefc1fa8	-0.49242902
238	0xbf08c9ba	-0.5343281
239	0xbe92098c	-0.2852291
240	0xbec75809	-0.38934353
241	0xbe5a70ad	-0.21332045
242	0xbe24ea8b	-0.16105096
243	0xbe236e7c	-0.15960115
244	0x3e819e03	0.25315866
245	0xbf204f1c	-0.6262071
246	0xbf2af77b	-0.66783875
247	0xbf15e969	-0.5855928
248	0xbf13cbb1	-0.57732683
249	0xbea12e23	-0.31480512
250	0xbd8dc964	-0.06923178
251	0xbe6a9f00	-0.22912216
252	0xbe37e833	-0.1795967
253	0xbe9c2489	-0.30496624
254	0x3e912c65	0.28354183
255	0xbd78b78c	-0.06072192

lstm1.bias_hh_l0 f4 [256]
0	0xbee9b490	-0.4564557
1	0xbefd4fa3	-0.4947482
2	0xbee5cc18	-0.44882274
3	0xbe39863d	-0.18117614
4	0x3c201d76	0.009772649
5	0xbe98fd20	-0.2988062
6	0xbea8abc3	-0.32943544
7	0xbefd3cf4	-0.49460566
8	0x3f61ac4f	0.8815355
9	0xbf51ab2d	-0.8190182
10	0xbec0661a	-0.37577897
11	0xbf3c168b	-0.734719
12	0xbf15a3ba	-0.5845295
13	0xbe65e8c3	-0.22452073
14	0xbeef54a0	-0.4674425
15	0xbf12ec94	-0.5739224
16	0xbe0e318c	-0.13886088
17	0xbf142b05	-0.5787814
18	0xbd71c31d	-0.059023965
19	0xbeab4bf4	-0.33456385
20	0xbf09a916	-0.5377363
21	0xbf21ccb3	-0.6320297
22	0xbf0e3a9e	-0.5555819
23	0x3e2cb53c	0.1686601
24	0x3e85588c	0.26044118
25	0xbe3d6e79	-0.18499173
26	0xbee20ea7	-0.44151804
27	0xbefc2fb1	-0.49255136
28	0xbf210da6	-0.6291145
29	0xbf3a8d0d	-0.72871476
30	0xbe46c01f	-0.19409226
31	0xbf2873de	-0.658018
32	0xbed42f36	-0.4144227
33	0xbf888aa1	-1.0667306
34	0xbf5be779	-0.85900074
35	0xbf5e53d2	-0.8684665
36	0xbf4c0511	-0.7969523
37	0xbda4fd00	-0.080560684
38	0xbd117bc0	-0.035518408
39	0xbdf959ac	-0.12175307
40	0x3dcb2824	0.099197656
41	0xbd6b27b7	-0.057410922
42	0xbeba6f40	-0.36413002
43	0xbf5a18a3	-0.8519384
44	0xbe3cc8ee	-0.18436024
45	0xbf6d72d1	-0.9275332
46	0xbf43ca02	-0.76480114
47	0x3d16ee60	0.036848426
48	0xbe0015ea	-0.1250836
49	0xbe9f1777	-0.3107259
50	0x3d95d1da	0.07315417
51	0xbe92722b	-0.28602728
52	0x3eb8a51d	0.3606347
53	0xbeb0bb93	-0.34518108
54	0xbedeaecc	-0.43492734
55	0xbed34e17	-0.41270515
56	0xbe3dc066	-0.18530425
57	0xbeb47077	-0.35242054
58	0xbf2c7a5a	-0.67374194
59	0xbdb9cd4c	-0.090723604
60	0xbf30ceb0	-0.6906538
61	0xbea8e375	-0.32986036
62	0xbf2f7bc0	-0.685482
63	0xbf27c20b	-0.6553046
64	0x3d3662c8	0.0445278
65	0xbec58fa9	-0.38586167
66	0xbfa49b05	-1.2859808
67	0x3e9ca07a	0.30591184
68	0xbf1416f4	-0.57847524
69	0xbe0737d8	-0.13204896
70	0xbec9e493	-0.394322
71	0x3ed707fa	0.41998273
72	0xbf10d2eb	-0.56571835
73	0xbf23fe9b	-0.6406037
74	0xbe861fed	-0.26196232
75	0x3ea9eb30	0.33187246
76	0xbdec6c67	-0.115441136
77	0xbf27a1f6	-0.6548151
78	0x3d6c1d2c	0.057645008
79	0xbf136a36	-0.5758394
80	0xbee7bcfa	-0.45261365
81	0x3e64d070	0.22345138
82	0xbe3df350	-0.18549848
83	0xbeb3b5f8	-0.3509977
84	0xbeff4bf8	-0.49862647
85	0xbdebf999	-0.11522216
86	0xbf08e2cf	-0.5347108
87	0xbf3c83d9	-0.73638684
88	0xbcf0f18f	-0.02941206
89	0xbf1e40ed	-0.6181782
90	0xbe990967	-0.29889986
91	0xbf1eea65	-0.6207641
92	0x3e034b66	0.12821731
93	0xbe3d92f6	-0.18513092
94	0x3e841a2c	0.25801218
95	0xbebf9110	-0.3741536
96	0xbecf9fb1	-0.40551522
97	0x3f1dcb98	0.61638784
98	0x3f4dfaa5	0.8046058
99	0xbf515538	-0.8177066
100	0x3f2a1c24	0.6644919
101	0xbf129cad	-0.5727032
102	0xbf24a6c1	-0.64316946
103	0xbee56d7f	-0.448101
104	0xbf441baf	-0.7660474
105	0xbe0c0b8d	-0.13676281
106	0xbdba3148	-0.09091431
107	0x3bad70ce	0.0052929884
108	0x3e4ea0d2	0.20178536
109	0xbf1bf410	-0.60919285
110	0xbef21949	-0.47284916
111	0xbef8fa3a	-0.48628408
112	0xbf01ee42	-0.5075418
113	0xbf3da458	-0.74078894
114	0x3e570d99	0.21001281
115	0xbc32bf12	-0.0109098125
116	0xbeeab455	-0.45840707
117	0xbe8baf06	-0.2728197
118	0xbdff51e6	-0.12466793
119	0x3e1a3507	0.15059291
120	0xbdbf810f	-0.09350788
121	0xbebf04bf	-0.37308308
122	0x3bd02eb6	0.0063532246
123	0xbfffed45	-1.9994284
124	0x3d8b42e8	0.06799871
125	0xbf6fa3d9	-0.93609387
126	0x3f0e66e7	0.55625767
127	0x3e545c65	0.2073837
128	0x3e779e65	0.24181516
129	0xbe0318dc	-0.12802452
130	0xbae77707	-0.0017659374
131	0x3edaa630	0.42704916
132	0x3daddc49	0.08489282
133	0xbe01d322	-0.12678197
134	0x3ec45614	0.38346922
135	0x3e832d9c	0.25620735
136	0x3ecdbfab	0.40185294
137	0x3e5fef8f	0.21868728
138	0xbe9e507b	-0.30920777
139	0x3e8610a0	0.2618456
140	0xbe45775c	-0.19283813
141	0x3e483ff0	0.1955564
142	0x3d7b9146	0.06141784
143	0x3e595e22	0.21227315
144	0xbe1e2444	-0.15443522
145	0x3eca1652	0.39470154
146	0xbea7a1db	-0.32740673
147	0x3d53826d	0.051638056
148	0xbed3b688	-0.41350198
149	0x3ef36607	0.47538778
150	0xbe1089bf	-0.14115046
151	0xbd2846fb	-0.041083317
152	0x3e8ebd13	0.27878627
153	0x3edc11e5	0.42982402
154	0x3e5f6f67	0.2181984
155	0xbc7a4104	-0.01527429
156	0x3f25fe30	0.64840984
157	0x3c30d44c	0.010792803
158	0xbd1805a7	-0.037114765
159	0x3ec20be7	0.37899706
160	0x3d42853b	0.04749034
161	0xbe883677	-0.26604053
162	0x3d57a1bc	0.052644476
163	0x3d3bc56a	0.045842566
164	0xbdbe79ff	-0.09300613
165	0xbdbc0548	-0.09180695
166	0x3e8f92ac	0.2804159
167	0x3e54ae29	0.20769562
168	0x3d218d5c	0.03944145
169	0xbf12a2a1	-0.572794
170	0xbebc9af7	-0.3683698
171	0x3e577c01	0.21043397
172	0x3d8f0f99	0.06985397
173	0xbe0302e6	-0.12794074
174	0x3e9f62cc	0.31130064
175	0x3e56da20	0.20981646
176	0xbe1cc28b	-0.15308587
177	0xbded1ddd	-0.115779616
178	0x3e74b127	0.23895703
179	0x3e29a6af	0.16567491
180	0x3e8cce2f	0.27501056
181	0x3e0bdb98	0.13657987
182	0xbe609c2e	-0.21934578
183	0x3eecc761	0.46245864
184	0x3e096b63	0.13419871
185	0xbe6bed2d	-0.23039694
186	0x3dcdabb2	0.10042514
187	0xbaed6443	-0.0018111545
188	0x3d75c88a	0.060005702
189	0xbd811a07	-0.063037924
190	0x3d69ef73	0.057113122
191	0xbe182508	-0.14857876
192	0xbd8f4538	-0.06995624
193	0x3e1cef5c	0.15325683
194	0xbf513a1d	-0.817293
195	0xbe6b8cc5	-0.23002918
196	0xbe875a73	-0.26436195
197	0xbf0321ae	-0.51223266
198	0xbd06db0a	-0.032923736
199	0xbe504504	-0.20338827
200	0x3f16cba9	0.5890451
201	0xbed940fc	-0.42432392
202	0xbd88839e	-0.06665729
203	0xbe46cc8c	-0.19413966
204	0xbf049d93	-0.5180294
205	0x3ca50695	0.02014474
206	0xbe90ea90	-0.28303957
207	0xbe4d5f21	-0.2005582
208	0xbee9aff0	-0.45642042
209	0x3bdbe029	0.0067100716
210	0xbe6039e8	-0.2189709
211	0xbf0e196e	-0.5550755
212	0xbee45c69	-0.44601753
213	0xbf24382a	-0.641482
214	0xbe5f819c	-0.21826786
215	0x3d4c7317	0.049914446
216	0x3b91c9fc	0.0044491272
217	0xbebfeea6	-0.37486762
218	0x3d8aacfc	0.067712754
219	0xbdba1db1	-0.090876944
220	0x3dbb47fe	0.09144591
221	0xbe09f5bc	-0.13472646
222	0xbd6bc949	-0.057565007
223	0xbf26342d	-0.64923364
224	0x3dd45c41	0.103691585
225	0x3f16f8db	0.58973473
226	0x3d125311	0.03572375
227	0xbf122255	-0.57083637
228	0xbec6f645	-0.38859764
229	0xbec694ea	-0.38785487
230	0xbe6868f6	-0.2269629
231	0xbdfd33fc	-0.12363431
232	0x3ee3a365	0.44460598
233	0xbe04c04e	-0.12963983
234	0xbeb46ead	-0.3524069
235	0xbe91e92e	-0.28498214
236	0xbeb80022	-0.359376
237	0xbecd7d06	-0.40134448
238	0xbf173787	-0.59069103
239	0xbe2749ee	-0.16336796
240	0xbebc7cb3	-0.36813888
241	0xbe46cfff	-0.19415282
242	0xbe287a0f	-0.16452812
243	0xbeb71a42	-0.3576222
244	0x3e5c2977	0.21500193
245	0xbee4278b	-0.4456142
246	0xbf40e0c7	-0.75342983
247	0xbf05d0b5	-0.52271587
248	0xbef981dc	-0.48731887
249	0xbeb5de1f	-0.35521027
250	0xbda265f4	-0.07929602
251	0xbe020254	-0.126962
252	0xbe646af9	-0.22306432
253	0xbeb624d1	-0.35574964
254	0x3dc30e31	0.09524191
255	0x3db78fc7	0.0896297

lstm2.weight_ih_l0 f4 [256, 64]
0	0xbf1b4689	-0.60654503
1	0x3f8cad97	1.0990475
2	0xbe46a6d5	-0.19399579
3	0xbfbb497a	-1.4631798
4	0x3f8ab213	1.0835594
5	0x3e0902b5	0.13379939
6	0xbeb3d48f	-0.35123107
7	0xbebac848	-0.36480927
8	0xbdf8ad34	-0.12142411
9	0xbf74692d	-0.95472986
10	0xbf0928bb	-0.53577775
11	0xbdc63d3f	-0.096796505
12	0xbe445ce6	-0.19176063
13	0x3e99a519	0.30008772
14	0xbded8af9	-0.115987726
15	0x3f13171a	0.57457125
16	0x3e56dee8	0.2098347
17	0xbf875f25	-1.0575911
18	0x3fab7c2a	1.3397267
19	0xbf0ecf92	-0.5578548
20	0x3f7ce8bf	0.9879264
21	0xbe003732	-0.12521055
22	0x3e9d3195	0.3070189
23	0xbea1115c	-0.31458557
24	0xbf61c80f	-0.8819589
25	0x3dbe155a	0.09281416
26	0xbf8749bd	-1.0569378
27	0x3fa5755c	1.292644
28	0xbeb47108	-0.35242486
29	0xbd80e62a	-0.062939
30	0xbe1e294d	-0.15445442
31	0x3e84be9e	0.2592668
32	0x3f090003	0.5351564
33	0xbd64bcb7	-0.055844035
34	0x3e58bd5d	0.21165986
35	0xbf01377d	-0.50475293
36	0xbd9379a8	-0.072009385
37	0xbd0e88e5	-0.03479852
38	0xbe50bbba	-0.20384112
39	0x3dfb71c4	0.122775584
40	0x3e91c2f2	0.28469044
41	0x3e5e27b3	0.21694832
42	0x3eba6139	0.364023
43	0xbf6506ae	-0.8946332
44	0x3f88d475	1.0689837
45	0xbed87449	-0.4227622
46	0x3ebf9065	0.37414852
47	0xbf5005c0	-0.81258774
48	0x3f73ecf4	0.95283437
49	0x3f15a81e	0.5845965
50	0x3f2c32a3	0.67264766
51	0xbfb037bf	-1.3767012
52	0xbe405660	-0.1878295
53	0x3e6bf235	0.23041613
54	0xbefff6fa	-0.49993116
55	0xbfdc0b6d	-1.7190987
56	0xbf5424a8	-0.82868433
57	0xbf396fc0	-0.7243614
58	0xbdb4809d	-0.088135935
59	0x3f8ccb1c	1.0999484
60	0x3edf6d0c	0.43637884
61	0x3f959865	1.1687132
62	0x3fb04a4c	1.3772674
63	0x3f99e1b7	1.2022008
64	0xbe1d6143	-0.15369134
65	0xbee8d682	-0.45476156
66	0x3ef465b5	0.47733846
67	0xbe90a2e9	-0.2824929
68	0xbe7b4771	-0.24538971
69	0x3dd27948	0.10277039
70	0x3f483503	0.7820589
71	0x3f0bfe2d	0.54684716
72	0x3fb30b91	1.3987905
73	0x3e998187	0.29981634
74	0x3f951fcd	1.165033
75	0x3f199221	0.599886
76	0xbe7e9ee6	-0.24865302
77	0x3e033f58	0.12817132
78	0xbf07a087	-0.5297932
79	0xbeac90d2	-0.3370424
80	0xbd212ff1	-0.03935236
81	0xbe8aa8a1	-0.2708178
82	0x3edf9583	0.43668756
83	0x3e681641	0.22664739
84	0xbf7780a9	-0.96680695
85	0x3ecef1f3	0.40418968
86	0x3e6e1fda	0.23254338
87	0xbe301c07	-0.17198192
88	0xbeb5019e	-0.35352796
89	0xbec98025	-0.3935558
90	0xbdd161c3	-0.10223725
91	0x3e5a33be	0.213088
92	0xbda9c422	-0.082893625
93	0xbef68abf	-0.4815273
94	0x3f1846df	0.5948314
95	0xbe8f69b9	-0.28010347
96	0xbc9b101d	-0.018928582
97	0x3ec27336	0.37978524
98	0xbc0fdd4b	-0.008780788
99	0x3e37a04e	0.17932245
100	0x3eeb5bb1	0.45968392
101	0xbf260df5	-0.64865047
102	0xbececc74	-0.4039036
103	0xbdf33bde	-0.11876653
104	0xbe8de7b0	-0.27715826
105	0x3f8ab684	1.0836949
106	0xbefbe357	-0.49196884
107	0xbf93957e	-1.1529996
108	0x3e5e71d4	0.2172311
109	0x3e0aa44d	0.13539238
110	0x3f1bee82	0.6091081
111	0xbe9517e5	-0.29119793
112	0xbed9d2ce	-0.42543644
113	0x3f3be429	0.7339502
114	0x3e771769	0.24130024
115	0xbf8af7f9	-1.0856925
116	0x3f1186fa	0.5684658
117	0x3e5eea95	0.21769173
118	0xbea581b6	-0.32325524
119	0x3f776d8f	0.9665155
120	0xbeca3bd6	-0.39498776
121	0xbec50e8d	-0.38487664
122	0x3ed70197	0.419934
123	0x3eb17052	0.34656006
124	0xbeaf65ff	-0.34257504
125	0xbf2a4ab6	-0.6652025
126	0xbed9002d	-0.42382947
127	0xbdea4c7d	-0.1144037
128	0x3dc1b272	0.09457864
129	0xbe9b3fef	-0.30322215
130	0x3e49101e	0.19635054
131	0xbfddabdc	-1.7318072
132	0xbe79530a	-0.24348083
133	0xb9f67d13	-0.00047013964
134	0x3f330e45	0.6994365
135	0xbef4a52f	-0.47782275
136	0xbf252d47	-0.6452221
137	0x3eddf984	0.43354428
138	0x3f2dfc4d	0.67963105
139	0xbf4572bc	-0.77128196
140	0xbf800d8e	-1.0004137
141	0xbf120c09	-0.57049614
142	0x3e403cb3	0.18773155
143	0x3f609b96	0.87737405
144	0x3fcb0cfd	1.5863339
145	0xbe267b95	-0.1625808
146	0x3f077e36	0.5292696
147	0xbf37ebad	-0.7184399
148	0xbf0cf966	-0.5506805
149	0x3fdd3fc6	1.7285087
150	0x3ee7f5b8	0.45304656
151	0xbc835828	-0.016033247
152	0x3ec05f31	0.37572625
153	0x3dffc3fe	0.124885544
154	0xbf58df77	-0.8471598
155	0xbead165a	-0.33806115
156	0xbfccacf6	-1.5990283
157	0x3e22836f	0.1587045
158	0xbfc12886	-1.5090492
159	0x3f711140	0.94166946
160	0xbf0a2442	-0.53961575
161	0x3ead475e	0.3384351
162	0x3f116b39	0.56804234
163	0xbeeeb5ed	-0.46623173
164	0x3d84c240	0.06482363
165	0x3e3fda9e	0.1873574
166	0x3ec8e56c	0.39237535
167	0x3e5ea451	0.21742369
168	0xbf9916aa	-1.1960042
169	0x3f7cb253	0.987096
170	0xbe99ac83	-0.30014428
171	0x3f1d7193	0.61501426
172	0xbe0b9871	-0.1363237
173	0xbf4a9674	-0.79135823
174	0xbe401bad	-0.18760557
175	0x3f939401	1.1529542
176	0x3ee4efa7	0.4471409
177	0x3eeee54a	0.4665931
178	0x3e96af30	0.29430532
179	0xbe83f646	-0.2577383
180	0x3ed4739b	0.4149445
181	0xbea90e94	-0.33018935
182	0xbf05286a	-0.5201479
183	0xbf1ddbfb	-0.6166379
184	0xbf7507ec	-0.9571521
185	0xbe1536e3	-0.14571719
186	0x3ed6ceda	0.4195469
187	0xbeef0e1d	-0.46690455
188	0xbfc49fd1	-1.5361272
189	0x402b7118	2.6787777
190	0xbb7410d9	-0.0037241487
191	0x3eaf2cf7	0.34213993
192	0x3f5e74dd	0.8689707
193	0x3f7ac42e	0.97955596
194	0x3f308066	0.6894592
195	0x3f4b891a	0.79506075
196	0x3f550ff9	0.832275
197	0x3fc1a5b5	1.5128695
198	0x3fdd58a6	1.7292678
199	0xbf89aa06	-1.0755012
200	0xbec34953	-0.3814188
201	0xbf0cf330	-0.55058575
202	0xbe9319ad	-0.28730527
203	0xbd8288e7	-0.06373768
204	0x3ed1d22a	0.40980655
205	0xbe67e319	-0.22645225
206	0xbf0e3f7e	-0.5556563
207	0x3e2e327f	0.1701145
208	0x3edaee23	0.4275981
209	0xbfa2b9cb	-1.271295
210	0xbec00efa	-0.37511426
211	0xbe2b0329	-0.16700424
212	0xc013cbe6	-2.30932
213	0x3f927e88	1.1444864
214	0x3f443e7a	0.7665783
215	0x3f6d8443	0.9277994
216	0xbf2c4a3b	-0.67300767
217	0x3de9567e	0.1139345
218	0x3f5f029e	0.8711337
219	0xbecf7a5e	-0.40523046
220	0x3ebb5ba1	0.36593345
221	0xbf3eb758	-0.7449851
222	0xbf669385	-0.90068847
223	0xbf2bebb4	-0.6715653
224	0xbf7b1ca2	-0.98090565
225	0x3ed02d4e	0.40659565
226	0xbf8e5885	-1.1120764
227	0x3f58247b	0.84430665
228	0x3e563ede	0.2092242
229	0xbf3627f9	-0.71154743
230	0x3eba6243	0.36403093
231	0x3edc72f1	0.43056443
232	0xbec59c40	-0.38595772
233	0x3f82a535	1.0206667
234	0xbf251378	-0.6448283
235	0xbf863051	-1.0483495
236	0xbf25aaf4	-0.6471398
237	0x3dfda255	0.12384478
238	0x3e3b694b	0.18301885
239	0xbf603527	-0.87581104
240	0x3f2f1555	0.68391925
241	0x3f25f239	0.6482273
242	0x3f81870c	1.0119338
243	0x3de8da96	0.11369817
244	0xbe4a0cb4	-0.19731408
245	0x3f770c82	0.9650346
246	0x3eed43f5	0.4634091
247	0xbe3cdd25	-0.18443735
248	0xbede7c90	-0.4345441
249	0x3f4d9857	0.8031058
250	0xbc39f391	-0.011349575
251	0x3ee44d8a	0.44590408
252	0xbe595cf1	-0.2122686
253	0x3f2cf354	0.6755879
254	0xbd340629	-0.043951187
255	0x3e1851f4	0.14875013

lstm2.weight_hh_l0 f4 [256, 64]
0	0xbe8acec3	-0.27110872
1	0xbc8bd103	-0.017067438
2	0xbf0a0f26	-0.53929365
3	0x3e4b2b42	0.1984072
4	0xbf9d3157	-1.2280682
5	0x3d5f46b9	0.054510806
6	0xbec20091	-0.37891057
7	0x3f3b8c01	0.73260504
8	0xbe8d34c3	-0.27579316
9	0x3e8f1af4	0.2795025
10	0xbf3d0475	-0.73834926
11	0x3ee14148	0.43995118
12	0xbdc0cd19	-0.09414119
13	0xbd9e5980	-0.077319145
14	0xbf5ebfa4	-0.8701117
15	0x3dc4a72c	0.09602198
16	0x3e1af046	0.1513072
17	0x3e603efb	0.21899025
18	0x3b0cbcc9	0.002147483
19	0x3c7eb0a1	0.015545041
20	0x3f9b99b2	1.2156279
21	0xbc21a83c	-0.00986677
22	0xbf727368	-0.94707346
23	0xbf5ddd84	-0.8666613
24	0xbe231e4b	-0.15929525
25	0x3f6bb04c	0.9206588
26	0xbfa37e27	-1.2772874
27	0xbb9eb660	-0.004843518
28	0xbebd1b26	-0.36934775
29	0x3e556adf	0.2084155
30	0x3fa25842	1.2683184
31	0x3f384215	0.71975833
32	0x3f857482	1.042618
33	0x3f488427	0.7832665
34	0x3fa00753	1.2502235
35	0xbe8759ab	-0.264356
36	0xbf7482f8	-0.9551234
37	0xbd40e525	-0.04709353
38	0x3d663bf3	0.056209516
39	0x3fdacbb5	1.7093416
40	0xbef8f407	-0.48623678
41	0xbe2f262e	-0.17104408
42	0x3f45da07	0.7728581
43	0x3f3952c3	0.7239191
44	0xbde3086c	-0.11085591
45	0xbf7f0cf2	-0.9962913
46	0xbdac1c96	-0.0840389
47	0xc00614d1	-2.0950205
48	0xbe5225da	-0.20522252
49	0x3e0b7573	0.13619022
50	0x3dd5d859	0.10441656
51	0xbc9faad9	-0.019490646
52	0x3f2327a3	0.63732356
53	0xbdcf5887	-0.10124307
54	0xbea561f5	-0.32301298
55	0xbf261414	-0.64874387
56	0x3f9cf43e	1.2262037
57	0x3f0564bd	0.5210684
58	0xbed124e0	-0.40848446
59	0xbec3e597	-0.382611
60	0x3de1d2ad	0.11026511
61	0x3d0e62d3	0.034762215
62	0xbe0b8745	-0.1362582
63	0x3e75989e	0.23984
64	0xbe4d6f52	-0.20061997
65	0xbf01a41f	-0.50641054
66	0x3e02ab21	0.12760593
67	0xbf183d59	-0.5946861
68	0x3f99f765	1.2028624
69	0xbf492104	-0.78566
70	0xbdca870a	-0.09889038
71	0x3f9afc02	1.2108157
72	0xbef9c5d7	-0.48783752
73	0xbe8aaed7	-0.27086517
74	0xbfc6c2f1	-1.5528241
75	0x3f15edc6	0.5856594
76	0x3fab96bb	1.3405374
77	0x3f0b2d5a	0.54366076
78	0x3eac0980	0.33600998
79	0x3f22459a	0.63387454
80	0xbe9006d1	-0.281302
81	0xbe5c0dee	-0.21489689
82	0x3e629550	0.2212727
83	0x3f86df3e	1.0536878
84	0x3f4e6638	0.80624723
85	0xbf42485b	-0.75891656
86	0xbe924b32	-0.28572994
87	0xbf821d9c	-1.0165286
88	0xbecee0bd	-0.40405837
89	0x3e6aced4	0.22930461
90	0xbf3b0dea	-0.73068106
91	0xbba0924b	-0.004900252
92	0x3e51452d	0.20436545
93	0xbdb149a9	-0.08656628
94	0xbea59b67	-0.32345125
95	0xbf805765	-1.0026671
96	0x3ef475cc	0.47746122
97	0xbe69282b	-0.22769229
98	0xbf92747e	-1.14418
99	0x3f67f947	0.9061474
100	0xbf287312	-0.65800583
101	0xbd6d2a8b	-0.0579019
102	0x3e910601	0.28324893
103	0xbfbf552b	-1.4947866
104	0x3dff523d	0.124668576
105	0x3f3a005d	0.72656804
106	0x3d2ad2ed	0.04170506
107	0xbef26154	-0.4733988
108	0xbde4ea13	-0.111774586
109	0x3f65ec06	0.8981327
110	0xbd8e00cb	-0.06933745
111	0x3f7bb1a2	0.9831792
112	0xbecfeae2	-0.4060889
113	0x3e0b7e54	0.13622409
114	0x3e17ad0b	0.14812104
115	0xbd15fc44	-0.036617532
116	0x3f4eac9a	0.8073212
117	0x3ec0a68b	0.37627062
118	0xbe3aa596	-0.18227229
119	0x3e7ad93f	0.24496935
120	0xbdef6628	-0.11689407
121	0xbf5d9166	-0.86549985
122	0x3e4a2b13	0.19742994
123	0x3f640124	0.8906424
124	0xbddf2553	-0.10895791
125	0x3e3c0d53	0.18364458
126	0xbefbcca4	-0.49179566
127	0x3f1277bd	0.57213956
128	0xbfae29a5	-1.3606459
129	0xbe8f31a8	-0.27967572
130	0xbf9c73b9	-1.2222816
131	0xbee06bb9	-0.43832186
132	0xbf83ddee	-1.0302103
133	0x3dab360f	0.0835992
134	0x3c09e46d	0.008416277
135	0x3f805fee	1.0029275
136	0x3f0a39da	0.53994524
137	0x3f25e53b	0.648029
138	0xbd4457fb	-0.047935467
139	0xbde67a6d	-0.112538196
140	0xbfe9b768	-1.8259096
141	0xbf4dc091	-0.8037196
142	0x3f185a6d	0.5951298
143	0x3e012a90	0.12613893
144	0x3ed1269f	0.40849778
145	0xbe7a87e4	-0.244659
146	0x3cdc863d	0.026919479
147	0x3ec94012	0.39306694
148	0x3f773f47	0.9658093
149	0x3e285856	0.16439947
150	0xbdf19103	-0.11795237
151	0x3f650c8e	0.8947228
152	0xba164c36	-0.0005733402
153	0x3f4e4c70	0.80585384
154	0xbf08f883	-0.535042
155	0xbe8c30e7	-0.2738106
156	0x3f8e6285	1.1123816
157	0x3e131bfa	0.14366141
158	0xbd5b821b	-0.053590875
159	0xbf5cf05f	-0.8630428
160	0x3eb88938	0.3604219
161	0x3dee7d7c	0.11645028
162	0xbf1cb97f	-0.61220545
163	0x3f2f5ad1	0.6849795
164	0x3f08d90e	0.534562
165	0xbe5b6460	-0.21425009
166	0xbd202df9	-0.039106343
167	0xbcd31b40	-0.02576983
168	0x3fa8f2c1	1.3199083
169	0x3eb7f39b	0.35928044
170	0x3e363381	0.17793085
171	0x3eb7c074	0.35889018
172	0x3d2aae2c	0.04167001
173	0x3f021267	0.5080933
174	0xbe936308	-0.28786492
175	0x3eb99caa	0.36252338
176	0xbf62adaa	-0.8854624
177	0x3e7b471f	0.2453885
178	0xbdefafb9	-0.11703438
179	0xbe7b22e3	-0.24525027
180	0xbe8f1647	-0.27946684
181	0x3f84f6c8	1.0387812
182	0xbeb9d8d5	-0.36298242
183	0x3e8f4f77	0.27990314
184	0x3e3c0298	0.18360364
185	0x3e85457f	0.26029584
186	0x3d8026cb	0.06257399
187	0x3e0632ab	0.13105266
188	0x3e7b1895	0.24521096
189	0x3e12ae75	0.14324363
190	0xbed6314b	-0.41834483
191	0x3b0c0f0e	0.0021371278
192	0x3f8a3a9f	1.079914
193	0x3f84d3ff	1.0377196
194	0x3e8f074e	0.2793526
195	0xbf553b9f	-0.832941
196	0x3ee10d50	0.4395547
197	0xbeef8016	-0.4677741
198	0x3e743caa	0.23851267
199	0x3ece7c5d	0.40329257
200	0x3ec5b2d5	0.38613
201	0x3e20708b	0.15667932
202	0xbfd3aa2d	-1.6536309
203	0xbf460d8a	-0.7736441
204	0xbf2dd3a5	-0.6790107
205	0xbcaa680e	-0.02080157
206	0x3ce65343	0.028115874
207	0x3dd17cfb	0.10228916
208	0xbdcbee16	-0.09957521
209	0xbedefe2e	-0.435533
210	0x3d0b9901	0.034081463
211	0x3ec818c5	0.39081398
212	0xbf2ef999	-0.68349606
213	0xbf39a852	-0.7252246
214	0xc01d78d2	-2.4604993
215	0x3f3dda91	0.7416163
216	0xbd5d4ba7	-0.054027226
217	0x3f25868d	0.64658433
218	0x3ecc802c	0.39941537
219	0xbd49f524	-0.04930605
220	0xbde46665	-0.11152343
221	0xbeddf216	-0.4334876
222	0xbe3132d3	-0.17304544
223	0xbf2e8990	-0.68178654
224	0xbf3edcc0	-0.7455559
225	0xbf1a22ec	-0.60209537
226	0x3f0177af	0.5057325
227	0x3e57eb77	0.21085916
228	0xbe36f43f	-0.1786661
229	0xbe5765a0	-0.2103486
230	0xbe8fb159	-0.28064993
231	0x3c9872a3	0.01860935
232	0x3dc04b62	0.09389378
233	0xbe7b1a0e	-0.24521658
234	0x3f8b16b3	1.0866302
235	0x3efa664a	0.48906165
236	0xbd74e772	-0.059791036
237	0x401786ab	2.3675945
238	0x3f852ed4	1.0404916
239	0x3fc0f69d	1.507526
240	0xbe2b690f	-0.16739295
241	0x3e3aa7ae	0.18228027
242	0xbd03b706	-0.032156967
243	0xbe7d9d8d	-0.24767132
244	0x3b8323ea	0.004002084
245	0x3e014a0b	0.12625901
246	0xbe827f7b	-0.25487885
247	0x3e37476e	0.17898342
248	0x3f6a2eb5	0.9147752
249	0x3ea54864	0.32281792
250	0x3fce7ca6	1.613179
251	0x3f861232	1.0474303
252	0xbd04e9a2	-0.032449372
253	0x3f406534	0.75154424
254	0x3f0d27ed	0.55139047
255	0x3d467286	0.04844906
