household_power_consumption/state_dict.pth (torch, 202530 bytes, 17 tensors)

fc0.weight f4 [128, 7]
0	0xbd818c09	-0.06325538
1	0xbd9001f9	-0.07031626
2	0xbe8206fe	-0.2539596
3	0xbec07f61	-0.37597182
4	0xc09789c3	-4.7355666
5	0xbf5cbc9c	-0.86225295
6	0x3f8fcfb4	1.1235261
7	0x3db2180f	0.08695995
8	0x3e26352c	0.16231221
9	0xbe7e2739	-0.2481965
10	0xbea07c60	-0.3134489
11	0xbea94ea8	-0.33067822
12	0xbe26b2c5	-0.16279133
13	0xbdaf4986	-0.08558945
14	0xc022bf55	-2.542928
15	0x3e7db95e	0.24777743
16	0xbd223fb3	-0.03961153
17	0xbfb971ce	-1.4487855
18	0x3fdc2c9d	1.7201115
19	0x3fc7c53f	1.560707
20	0x3f17651a	0.59138644
21	0xbf5e5cf0	-0.8686056
22	0xbea40932	-0.32038265
23	0xbe83c2a7	-0.25734445
24	0x3f3f1914	0.7464764
25	0xbfa1801c	-1.2617221
26	0xbf430e40	-0.7619362
27	0xbf1becd5	-0.6090825
28	0x3eb3b2e2	0.35097414
29	0xbdfbfe08	-0.12304312
30	0x3e09cf31	0.13457943
31	0xbda57a0b	-0.080799185
32	0xbea8e22b	-0.32985052
33	0x3c20c1b7	0.00981181
34	0xbe41a5d2	-0.18910912
35	0xbe8ba624	-0.27275193
36	0xbed85a81	-0.4225655
37	0xbea477bc	-0.321226
38	0x3ef36993	0.47541484
39	0xbf08e5dd	-0.53475744
40	0xbf258464	-0.6465514
41	0xbe7b9549	-0.24568667
42	0xbe083282	-0.13300517
43	0xbe9cc482	-0.30618674
44	0xbe9fd56a	-0.3121751
45	0x3e692e4c	0.22771567
46	0x3d86bf07	0.06579404
47	0xbdb99814	-0.0906221
48	0xbea8f19f	-0.32996842
49	0x3ec4e0fe	0.38452905
50	0xbea8f85f	-0.33001992
51	0xbcc95555	-0.024576822
52	0xbf04a70f	-0.5181741
53	0x3f0b1c58	0.54340124
54	0x3f3719d0	0.7152376
55	0xbeb44c38	-0.352144
56	0xbfb2eb49	-1.3978053
57	0x3e7646a7	0.24050389
58	0x3e0a3f59	0.13500728
59	0xbf95fbe4	-1.1717496
60	0x3f313809	0.6922613
61	0xbec99674	-0.393726
62	0xbf3b615e	-0.73195446
63	0xbb05d981	-0.0020423832
64	0x3eae6246	0.34059352
65	0xbebb0983	-0.36530694
66	0x3e43d648	0.1912471
67	0xbea8bbc2	-0.32955748
68	0xbdbaa6dc	-0.09113857
69	0xbe5ad933	-0.21371917
70	0xbd2569d1	-0.040384118
71	0x3eb18b35	0.3467652
72	0xbeb1c781	-0.34722522
73	0xbeaaf780	-0.33391953
74	0x3e998b45	0.29989067
75	0x3e563cef	0.20921682
76	0xbe534a6d	-0.2063386
77	0xbe5334f1	-0.20625664
78	0xbeb15921	-0.34638312
79	0xbc079438	-0.008275084
80	0x3e580fa2	0.21099713
81	0xbca5df2d	-0.02024802
82	0x3df8b71a	0.12144299
83	0xbe734adf	-0.2375903
84	0x3b3a116b	0.002839173
85	0xbeaa2b1a	-0.3323601
86	0xbea7a579	-0.32743433
87	0x3e544254	0.20728427
88	0x3e274048	0.16333115
89	0xbcb61e41	-0.022231223
90	0x3ddb7410	0.107154965
91	0xbe9d15e1	-0.30680755
92	0x3ebef1b7	0.3729379
93	0x3e41b7ea	0.18917814
94	0xbe96c871	-0.294498
95	0x3e961b8f	0.293179
96	0xbe87ca12	-0.26521355
97	0xbdefeb70	-0.11714828
98	0x3ea8fb60	0.33004284
99	0xbe3d80c1	-0.18506147
100	0xbdee84a6	-0.116463944
101	0x3e86696f	0.26252314
102	0xbd5bb14a	-0.053635873
103	0xbe7df685	-0.24801071
104	0xbef80196	-0.4843871
105	0x3fa51cc8	1.2899408
106	0xbeca067d	-0.39458075
107	0x3d2e8c8d	0.04261451
108	0xbfe9ef9d	-1.8276249
109	0x3c865cd0	0.016401678
110	0xbb9164cc	-0.0044370648
111	0xbda43a7c	-0.080189675
112	0xbe5d6f95	-0.21624596
113	0x3cab0f0f	0.020881204
114	0xbe773b06	-0.2414361
115	0xbe343949	-0.17599978
116	0x3e8407d8	0.25787234
117	0xbd0ea40b	-0.034824412
118	0x3cb0e35b	0.021592787
119	0xbecaa0a9	-0.395757
120	0xbbaee9dc	-0.005337937
121	0x3d623f63	0.05523623
122	0x3c7fa7a3	0.015603933
123	0x3ea8e7e7	0.32989427
124	0xbe60b35d	-0.21943422
125	0x3d8fa00d	0.07012949
126	0x3f8b0c84	1.0863194
127	0xbc59d7fe	-0.013296125
128	0xbd9864a9	-0.074410744
129	0xbf999e18	-1.2001371
130	0xc0114fc7	-2.2704942
131	0xbeac38c1	-0.3363705
132	0xbd220035	-0.03955098
133	0x3eb45326	0.35219687
134	0x3ef5392c	0.4789518
135	0x3d422c2f	0.047405418
136	0xbfae84d5	-1.3634287
137	0x3e240da3	0.16020827
138	0xc0091c5e	-2.1423564
139	0x3e6e3ab0	0.23264575
140	0xbcb62eb7	-0.022239072
141	0x3e4690ea	0.19391218
142	0xbdcd6d6c	-0.10030636
143	0xbeb2c8ee	-0.34918922
144	0x3e6dedc2	0.23235229
145	0x3e440f80	0.19146538
146	0xbc21bbf5	-0.009871473
147	0xbed4cb3c	-0.41561306
148	0xbe6434f6	-0.22285828
149	0xbf17969a	-0.59214175
150	0xbf07f877	-0.531135
151	0xc0cf99cf	-6.4875255
152	0x3ee5f8c7	0.44916365
153	0x3f9a1e19	1.2040435
154	0x3f293a12	0.66104233
155	0x3e0507af	0.12991212
156	0xbd9d3126	-0.0767539
157	0x3db2e9b5	0.08735982
158	0xbee2c767	-0.44292757
159	0xbd1b5052	-0.037918396
160	0xbec764be	-0.38944048
161	0x3e9c8a84	0.3057443
162	0xbeac337f	-0.33633038
163	0xbdfc1e4b	-0.123104654
164	0xbd6c2dd5	-0.057660896
165	0xc15e4188	-13.890999
166	0xbce2e151	-0.02769533
167	0x3cd8645a	0.026415039
168	0xc0b2a46f	-5.5825725
169	0x3f3a27c1	0.7271691
170	0x3e76dcb3	0.24107628
171	0xc03b74e8	-2.9290104
172	0xc0990b7d	-4.7826524
173	0x3fc46b90	1.5345325
174	0xbfdafe51	-1.7108861
175	0x3e58f61a	0.2118763
176	0xbdf0ef9b	-0.11764451
177	0xbeb32cf5	-0.34995237
178	0x3e5818ae	0.21103165
179	0xbdcb66f0	-0.09931743
180	0x3e5cb22c	0.21552342
181	0x3d70bc5c	0.058773383
182	0x3d442084	0.04788257
183	0x3e179f4f	0.14806865
184	0xbeaf2350	-0.3420663
185	0x3e80b27d	0.25136176
186	0xbe5f8ad2	-0.218303
187	0xbeb7e098	-0.3591354
188	0xbe875059	-0.26428488
189	0xbf0bd166	-0.5461639
190	0xbe7f3dc6	-0.24925908
191	0xbe9f8b7f	-0.31161115
192	0xbd945800	-0.07243347
193	0x3dc2dfdb	0.09515353
194	0xbe159710	-0.14608407
195	0x3da2f864	0.07957533
196	0x3f64bc45	0.89349777
197	0x3daa9af9	0.0833034
198	0x3c14aeb9	0.00907486
199	0xbf22d300	-0.6360321
200	0xc044ecc2	-3.0769506
201	0xbe247031	-0.16058423
202	0xc0674afc	-3.6139517
203	0x40051635	2.0794804
204	0xbe68235b	-0.22669737
205	0xbde172cc	-0.11008224
206	0x3f29993d	0.6624945
207	0xbf21444f	-0.62994856
208	0x3db3578f	0.08756935
209	0x3f1eb653	0.61996955
210	0x3dce38cf	0.10069429
211	0xbe868d18	-0.2627952
212	0x3a8d3fa5	0.0010776414
213	0xbe71442a	-0.23561159
214	0x3e0b14cf	0.13582157
215	0xbdd88d2b	-0.10573801
216	0xbdb7de80	-0.089779854
217	0xbc0bdf6d	-0.008537156
218	0xbe279e28	-0.16368926
219	0xbe5c8686	-0.21535692
220	0x3d772f46	0.060347818
221	0xbec8fa6b	-0.39253554
222	0x3e1a2ec7	0.15056907
223	0xbd0c4217	-0.034242716
224	0x3d89484c	0.06703243
225	0xbe26f527	-0.16304456
226	0xbe8c0a34	-0.27351534
227	0x3e2a0278	0.16602504
228	0xbf9909bf	-1.1956099
229	0x3fd6b572	1.6774123
230	0xbd4f4037	-0.05059835
231	0x3d932237	0.0718426
232	0xbe89984c	-0.26874006
233	0xbe0357d7	-0.12826477
234	0x3e0da3b7	0.13831984
235	0xbeb6f0cf	-0.35730597
236	0xbdc8a965	-0.097979344
237	0xbbf0ba79	-0.007346448
238	0xc0160251	-2.3438914
239	0xbd19e960	-0.03757608
240	0x3d7c85a6	0.061650895
241	0x4006a6cc	2.1039305
242	0x3e190fb0	0.1494739
243	0x3f166a2f	0.58755773
244	0x3cef4538	0.02920781
245	0x3e585fe3	0.21130328
246	0xbe8449e2	-0.25837618
247	0x3c4f5073	0.012653458
248	0xbe518dbd	-0.20464225
249	0xbe283970	-0.1642816
250	0x3d902611	0.070385106
251	0x3e92781e	0.28607267
252	0xbf1d93ad	-0.6155346
253	0x3ddea41d	0.10871146
254	0xbe851d1d	-0.25998774
255	0x3d639728	0.055564076

fc0.bias f4 [128]
0	0xbf0d188e	-0.5511559
1	0xbd10850c	-0.035283133
2	0x3dfbb81c	0.122909755
3	0xbb2e54e0	-0.0026600882
4	0xbeb56f99	-0.35436705
5	0xbd645769	-0.055747423
6	0xbdc8bef4	-0.098020464
7	0xbf4a267c	-0.7896497
8	0x3ef978d5	0.48725
9	0xbebb1aaa	-0.3654378
10	0xbe8a26af	-0.26982638
11	0xbe1c972a	-0.1529204
12	0xbeaa589f	-0.33270738
13	0xbeb93438	-0.36172652
14	0xbef50a3f	-0.4785938
15	0xbd40a7cc	-0.047035024
16	0xbde7292a	-0.11287148
17	0xbe2d8f06	-0.1694909
18	0x3be0bcae	0.00685843
19	0x3ee195f9	0.44059733
20	0xbdcada98	-0.09904975
21	0xbf07cea0	-0.5304966
22	0xbf0661f4	-0.52493215
23	0x3ef677c8	0.4813826
24	0x3e156783	0.14590268
25	0xbf0fdeae	-0.5619916
26	0xbeac37a0	-0.33636189
27	0x3c3bc777	0.01146113
28	0x3e3504f8	0.17677677
29	0xbf0a82f0	-0.54106045
30	0xbdb2046a	-0.08692248
31	0xbdf3bf19	-0.11901683
32	0xbf151ee7	-0.5825028
33	0xbe469f4b	-0.19396703
34	0x3d1983fb	0.037479382
35	0xbea7f5ec	-0.3280481
36	0xbbfe2845	-0.0077562653
37	0xbe1b577f	-0.15170096
38	0xbf19a97f	-0.60024256
39	0xbe196046	-0.14978132
40	0xbe2706f8	-0.16311252
41	0x3ec36bcf	0.3816819
42	0xbeaadd6f	-0.33372065
43	0x3f12db99	0.5736633
44	0xbea23982	-0.316845
45	0xbf50f740	-0.81627274
46	0xbea42511	-0.3205953
47	0xbd87361f	-0.0660212
48	0xbe17a0d9	-0.14807452
49	0xbdbf98ee	-0.09355341
50	0xbd9502d6	-0.072759315
51	0xbec9c3eb	-0.39407286
52	0xbf74986c	-0.9554508
53	0x3bffa23b	0.007801322
54	0x3c9b71fc	0.01897525
55	0x3ec07450	0.3758874
56	0x3f06c7f8	0.5264888
57	0xbded4ee2	-0.11587311
58	0xbece9a47	-0.4035208
59	0xbe26ff66	-0.16308364
60	0xbea0ba9b	-0.3139237
61	0xbe5d70cc	-0.2162506
62	0x3cecd885	0.028911838
63	0xbdfc6168	-0.12323266
64	0x3c1ef26a	0.009701351
65	0x3f25f163	0.6482145
66	0xbe15ef80	-0.14642143
67	0xbeb7bece	-0.3588776
68	0xbca00e99	-0.01953821
69	0xbe4decdc	-0.20109886
70	0xbe3b5cbd	-0.18297096
71	0xbe964f0c	-0.29357183
72	0xbce5849e	-0.028017338
73	0xbe18b2c1	-0.14911939
74	0xbe3160bc	-0.17322057
75	0xbd029f19	-0.03189001
76	0xbdfa9dad	-0.122371055
77	0xbeb6e4ac	-0.35721338
78	0x3ec68a93	0.387776
79	0xbea24f00	-0.31700897
80	0xbe98c405	-0.2983705
81	0xbd633812	-0.055473395
82	0xbc8457d6	-0.016155165
83	0xbccc1c4d	-0.024915839
84	0xbe8efc5c	-0.2792691
85	0xbb573d2c	-0.0032842858
86	0x3bbf7aac	0.005843481
87	0xbe8e9c3b	-0.2785357
88	0xbe910cf7	-0.28330204
89	0x3e59bb85	0.2126294
90	0xbe3b269c	-0.18276447
91	0xbe2d3400	-0.16914368
92	0xbe58b7f9	-0.2116393
93	0x3c5d1566	0.013493871
94	0xbcbddeec	-0.023177586
95	0xbcc09e6b	-0.02351304
96	0xbf3dd6c4	-0.7415583
97	0xbe82da7f	-0.25557324
98	0x3e44b33f	0.19209002
99	0xbe95f823	-0.29290876
100	0xbedc8991	-0.43073705
101	0x3e349001	0.17633058
102	0x3cb5f99e	0.022213753
103	0xbe3a9615	-0.18221314
104	0x3ea9a10e	0.33130687
105	0xbe705955	-0.23471577
106	0x3eb39c61	0.35080245
107	0xbdd6aa0f	-0.10481655
108	0xbdc3f599	-0.095683284
109	0xbebd8780	-0.3701744
110	0x3e09c0fe	0.13452527
111	0xbeac3cbd	-0.3364009
112	0xbec7f895	-0.3905684
113	0xbec5d56d	-0.38639393
114	0xbeb9bb78	-0.3627584
115	0x3eb406f2	0.3516155
116	0xbeb64cbe	-0.35605425
117	0xbec2dbd1	-0.38058332
118	0xbdddb2a9	-0.10825092
119	0xbd746d27	-0.05967441
120	0x3ee9d80e	0.4567265
121	0x3c91d25e	0.017800506
122	0xbda40225	-0.080082215
123	0xbec3a431	-0.38211206
124	0xbeb9482b	-0.36187872
125	0xbe1e9433	-0.15486221
126	0xbf074182	-0.5283433
127	0xbea16e82	-0.31529623

fc1.weight f4 [64, 128]
0	0x3e6e1dc4	0.23253542
1	0xbdcdef14	-0.10055366
2	0x3e741747	0.23837005
3	0x3f2aa7fa	0.6666256
4	0xba9f5246	-0.0012155257
5	0x3ddf932a	0.10916741
6	0x3d708ee2	0.058730014
7	0x3e3ba8c2	0.18326095
8	0x3e903fa9	0.2817357
9	0xbc820483	-0.015871292
10	0xbdae200d	-0.08502207
11	0xbdc0a43f	-0.094063275
12	0x3d6ec9d2	0.05829794
13	0xbd8b16f2	-0.06791486
14	0x3ecf0013	0.40429744
15	0xbed7fda2	-0.42185694
16	0x3d7ad5d9	0.061239097
17	0x3c0b71dc	0.008511033
18	0xbd1f1518	-0.038838476
19	0x3d37df76	0.044890843
20	0xbd9abdcd	-0.07555733
21	0x3e96a185	0.29420105
22	0x3e0b600f	0.13610862
23	0xbd13e65d	-0.036108363
24	0xbed06535	-0.40702215
25	0x3d83e394	0.064398915
26	0xbd974747	-0.07386642
27	0x3e22248d	0.15834256
28	0x3ddbf542	0.107401386
29	0xbe3da7cc	-0.1852104
30	0x3aef8dde	0.0018276533
31	0xbd744011	-0.05963141
32	0xbe8b19c5	-0.27168098
33	0xbd86113d	-0.06546257
34	0x3e41d716	0.18929705
35	0xbcd6104a	-0.026130814
36	0x3cb2fb12	0.021848235
37	0x3c817eb1	0.015807481
38	0x3dceb8ea	0.10093863
39	0xbd086fd9	-0.03330979
40	0xbda3963b	-0.079876386
41	0xbe3158d2	-0.17319039
42	0x3d255295	0.04036196
43	0xbed9af08	-0.4251635
44	0xbd1ee572	-0.038793035
45	0x3e116dc5	0.1420203
46	0xbd0e31e9	-0.034715567
47	0x3f800e7f	1.0004424
48	0xbd996bc3	-0.07491257
49	0x3d86c18d	0.06579886
50	0xbe84db94	-0.25948775
51	0x3d22a6af	0.039709743
52	0x3fa121b7	1.2588414
53	0x3ecec162	0.40381914
54	0x3d9783a6	0.07398157
55	0x3cf8bd1a	0.030363608
56	0xba439bf8	-0.0007461901
57	0xbd85a45f	-0.06525492
58	0x3d8ba25f	0.06818079
59	0x3ed5595e	0.41669744
60	0x3ba36316	0.004986177
61	0xbdcc250e	-0.09968005
62	0x3db40883	0.08790686
63	0xbd151adb	-0.036402564
64	0x3d593d3f	0.053036924
65	0x3e049d7e	0.12950704
66	0x3d4a4c1c	0.04938899
67	0xbcd9829b	-0.026551535
68	0xbdc1fdee	-0.09472261
69	0xbc8276d4	-0.015925802
70	0xbd86a417	-0.065742664
71	0xbea7b397	-0.32754204
72	0x3d13a150	0.03604251
73	0xbcff7910	-0.031185657
74	0xbd24053b	-0.04004405
75	0xbc98383c	-0.018581502
76	0xbe2e883f	-0.17044161
77	0xbc2e2076	-0.0106278565
78	0x3e9b0cc2	0.3028317
79	0x3db5c91e	0.08876251
80	0xbcc011dd	-0.023446018
81	0x3ef62266	0.4807312
82	0x3d7c5519	0.061604593
83	0x3db32697	0.08747595
84	0x3cfa3f9c	0.03054791
85	0x3c8deb3c	0.017324083
86	0xbe3de58e	-0.185446
87	0xbd11adc3	-0.035566103
88	0xbdc79106	-0.09744458
89	0x3ecfb2ff	0.4056625
90	0x3b6042bc	0.0034219464
91	0xbd3569aa	-0.044290222
92	0xbc9ca925	-0.019123623
93	0xbd828a0b	-0.06373986
94	0x3f47ab5b	0.7799584
95	0x3cb5e4bb	0.022203794
96	0xbdde9c70	-0.10869682
97	0x3b8a03bd	0.0042118714
98	0xbe60e8f6	-0.21963868
99	0x3da93f1f	0.082639925
100	0xbe90356d	-0.2816576
101	0xbedf3207	-0.43592855
102	0x3ce9d1ef	0.028542487
103	0xbd3489f3	-0.04407687
104	0xbee194e5	-0.4405891
105	0xbd3094d1	-0.043110672
106	0x3d7fc09a	0.06243954
107	0xbd589ec1	-0.052885775
108	0x3ed323b1	0.41238168
109	0x3ce10560	0.027468383
110	0x3e5d7823	0.2162786
111	0x3e3f6025	0.1868902
112	0xbedb444e	-0.4282555
113	0x3d3192e3	0.043352973
114	0x3d9dc239	0.07703061
115	0xbee478f5	-0.44623533
116	0x3d79c925	0.060982842
117	0x3c3373f7	0.010952941
118	0x3d26ff11	0.040770594
119	0xbdb0ffd4	-0.08642545
120	0xbdac09a9	-0.0840028
121	0x3d08598a	0.033288516
122	0xbcff0cf3	-0.031134104
123	0xbc307a0d	-0.010771287
124	0xbd9e29b4	-0.07722798
125	0xbd61e1c9	-0.055146966
126	0x3e642c5e	0.2228255
127	0xbd29cf06	-0.0414572
128	0xbbf686cc	-0.0075233933
129	0xbd9a7e4b	-0.0754362
130	0xbd278a79	-0.040903542
131	0x3d320dcf	0.0434702
132	0xbd8c7cc7	-0.06859737
133	0x3d1af5b6	0.037831984
134	0x3cfb5a26	0.030682635
135	0xbc7682c5	-0.015045826
136	0xbc76af79	-0.015056484
137	0x3cca7dcc	0.024718188
138	0x3d44ca41	0.048044447
139	0xbd733e76	-0.05938574
140	0x3cb48ee9	0.022040801
141	0xbd28d4ff	-0.041218754
142	0xbd847c2c	-0.064689964
143	0x3d0d05f5	0.03442951
144	0xbd8862de	-0.066594824
145	0xbd9782da	-0.07398005
146	0xbdccb23f	-0.09994935
147	0xbd8612b8	-0.06546539
148	0x3d9d5f12	0.07684149
149	0xbd9842fa	-0.0743465
150	0xbcda242f	-0.026628582
151	0xbcb92d72	-0.022604678
152	0x3aad6ac1	0.0013230668
153	0xbe16f100	-0.14740372
154	0x3d92125d	0.07132409
155	0xbc4b1264	-0.012394521
156	0x3de20089	0.11035258
157	0x3adb025a	0.0016709075
158	0x3cd1d31f	0.025613366
159	0x3da24a5a	0.07924338
160	0xbd8d076c	-0.06886181
161	0xbd8cda2e	-0.06877552
162	0x3d35998e	0.044335894
163	0x3d4113ec	0.04713814
164	0x3daa13c7	0.083045535
165	0x3be38134	0.0069428924
166	0xbd2bb652	-0.04192192
167	0x3d608b65	0.054820437
168	0x3d38fc1d	0.04516231
169	0xbd9b0d1f	-0.07570862
170	0xbd31531b	-0.043292146
171	0x3cf7ba60	0.030240238
172	0x3d6654ac	0.056233093
173	0xbd8afa4d	-0.06786022
174	0xbce3580f	-0.02775195
175	0xbd204b0f	-0.03913408
176	0x3d053124	0.032517567
177	0x3d356fde	0.044296138
178	0x3cbd91bf	0.023140786
179	0x3c605f7b	0.013694639
180	0xbdbf5b30	-0.093435645
181	0x3d8b1317	0.067907505
182	0xbcde3287	-0.027123703
183	0xbe08d874	-0.1336382
184	0xbb2380f5	-0.002494869
185	0x3c738b50	0.014864758
186	0x3d8f620d	0.070011236
187	0x3d8ab700	0.06773186
188	0xbde8567f	-0.11344623
189	0xbd96c77c	-0.073622674
190	0x3d083c9b	0.033260923
191	0x3d12dd06	0.035855316
192	0x3dbd3d81	0.092402466
193	0xbcd9de2d	-0.0265952
194	0xbc916969	-0.017750459
195	0xbce16d04	-0.027517803
196	0x3daecb67	0.0853489
197	0x3c938b58	0.01801078
198	0x3cc5b457	0.024133844
199	0xbc52382b	-0.012830774
200	0x3d60ef10	0.054915488
201	0xbd8b0941	-0.067888744
202	0x3ca861e4	0.02055449
203	0xbcfce2da	-0.03086989
204	0x3bf27fb3	0.007400477
205	0xbcbe0071	-0.02319357
206	0xbca138a5	-0.01968033
207	0x3b228a68	0.0024801735
208	0x3c7fb1a0	0.015606314
209	0xbda96c8a	-0.08272655
210	0xbd887702	-0.06663324
211	0x39d1c144	0.0004000758
212	0x3d2dddbe	0.042447798
213	0xbcce939c	-0.02521687
214	0xbc5ca9a9	-0.0134681845
215	0x3daa401e	0.08313011
216	0x3d39e715	0.045386393
217	0x3ccedca3	0.025251692
218	0xbb9bb14f	-0.0047513614
219	0x3da9e01f	0.08294701
220	0xbde45184	-0.1114836
221	0xbdb1889a	-0.08668633
222	0xbce2fb9e	-0.027707871
223	0x3dbfc09a	0.09362908
224	0xbe2654e8	-0.16243327
225	0x3db105af	0.08643662
226	0xbba117f5	-0.004916186
227	0xbdb03aa5	-0.086049356
228	0xbcf67f88	-0.030090109
229	0xbde7b9a5	-0.11314706
230	0xbd3fae5d	-0.046797145
231	0x3d727194	0.059190348
232	0xbd94f8b4	-0.07273999
233	0xbd56fac0	-0.052485228
234	0xbdd96589	-0.106150694
235	0xbd79d8f4	-0.06099792
236	0x3bb79a2d	0.005603096
237	0xbda0374c	-0.07823047
238	0xbcbfa59e	-0.023394402
239	0x3da0a5b7	0.078441076
240	0xbe19aa78	-0.15006435
241	0x3d16f291	0.036852423
242	0x3d507663	0.050894152
243	0xbdf07f75	-0.117430605
244	0x3cae1200	0.021248817
245	0xbd844ea1	-0.0646031
246	0xbd237690	-0.039907992
247	0x3d44d6ce	0.048056416
248	0x3c0a3737	0.008436016
249	0x3d4186f0	0.047247827
250	0xbd2f4251	-0.042787854
251	0x3d7533ec	0.05986397
252	0x3d2aa0f8	0.041657418
253	0xbdb908c9	-0.09034879
254	0xbbd09ff4	-0.006366724
255	0x3d0e7773	0.034781884

fc1.bias f4 [64]
0	0xbee91082	-0.45520407
1	0xbdb3d89d	-0.0878155
2	0xbde6a2d7	-0.11261528
3	0xbcc5226f	-0.02406427
4	0xbdd83815	-0.10557572
5	0xbdfd5819	-0.12370319
6	0xbd22d366	-0.039752387
7	0xbdacce38	-0.084377706
8	0xbe700e37	-0.23442923
9	0xbe0973e2	-0.13423112
10	0xbe1bb837	-0.15206991
11	0xbd5487bc	-0.05188726
12	0xbd820749	-0.06349046
13	0x3d4f1cd0	0.050564587
14	0xbd163843	-0.03667475
15	0xbd81eca1	-0.063439615
16	0xbd14ee0f	-0.036359843
17	0xbd770cde	-0.060315005
18	0xbc58729a	-0.013210917
19	0xbdbc9ec6	-0.09209971
20	0xbd6b2a9b	-0.05741368
21	0xbdd60036	-0.10449259
22	0xbd5e38a6	-0.054253243
23	0xbda63339	-0.08115239
24	0xbf188d45	-0.5959056
25	0x3e16792b	0.1469466
26	0xbdd0da07	-0.101978354
27	0xbd63db97	-0.05562934
28	0xbd836c0c	-0.06417093
29	0x3dd762ca	0.105168894
30	0xbeb2f8f1	-0.34955552
31	0xbd687e43	-0.056761038
32	0xbd98b461	-0.074562795
33	0xbe9b0cc8	-0.3028319
34	0xbeff18e3	-0.49823675
35	0xbe15cdc9	-0.14629282
36	0xbd7457fc	-0.05965422
37	0xbc410813	-0.01178171
38	0xbb57feea	-0.0032958337
39	0xbe4e7023	-0.20159964
40	0xbea7fd8b	-0.32810625
41	0x3e80e086	0.25171298
42	0xbe03194b	-0.12802617
43	0x3c16d527	0.009206093
44	0xbd9c0949	-0.076189585
45	0x3f27bc65	0.6552184
46	0xbdf1a234	-0.11798516
47	0xbdf65cf7	-0.120294504
48	0xbe01cfa5	-0.12676866
49	0x3e9e7fce	0.30956882
50	0xbdbe68ba	-0.09297319
51	0xbd8fcdc5	-0.07021669
52	0xbde4622a	-0.11151536
53	0xbdcf8272	-0.10132302
54	0xbe776034	-0.24157792
55	0xbc95eb29	-0.01830061
56	0xbdf3f8c8	-0.11912686
57	0xbdadcd82	-0.08486463
58	0xbe02edef	-0.12786077
59	0xbe6ab0fb	-0.22919075
60	0x3e89401f	0.26806733
61	0x3ccfa975	0.025349358
62	0xbcf2106c	-0.029548846
63	0xbdf8c587	-0.1214705

lstm1.weight_ih_l0 f4 [256, 64]
0	0x3ec8e792	0.39239174
1	0x3dca33b4	0.09873143
2	0xbd779437	-0.060444083
3	0xbde6b160	-0.112643
4	0xbcb164a9	-0.021654444
5	0xbd810733	-0.06300201
6	0xbdb657c6	-0.0890346
7	0xbd8108a7	-0.063004784
8	0xbe4e3ba0	-0.20139933
9	0x3d8163fd	0.063178994
10	0x3db45d9d	0.08806918
11	0x3bdc54e7	0.0067239883
12	0xbe08e313	-0.13367872
13	0x3effa441	0.49930003
14	0xbd6cc55c	-0.057805404
15	0xbd174e8e	-0.03694015
16	0x3e042630	0.12905192
17	0x3d63502f	0.05549639
18	0xbd807791	-0.062728055
19	0xbdb7ae36	-0.08968775
20	0xbd40f829	-0.047111664
21	0xbe12d26e	-0.14338085
22	0xbd6cf13d	-0.05784725
23	0xbd3c3337	-0.04594728
24	0x3e28bdcd	0.16478653
25	0xbf059c40	-0.52191544
26	0xbd847f1a	-0.06469555
27	0xbcf7627a	-0.030198324
28	0xbc9c88d4	-0.019108213
29	0x3d16becc	0.03680305
30	0xbe9507ce	-0.29107517
31	0xbdbdb90b	-0.0926381
32	0xbe4065d0	-0.18788838
33	0xbd37e31d	-0.044894326
34	0xbeb66226	-0.35621756
35	0xbdbd52a8	-0.09244281
36	0xbdc61b91	-0.096732266
37	0xbdca5819	-0.098800845
38	0x3db3862c	0.08765826
39	0xbdbd67a5	-0.09248284
40	0x3e1c6bb2	0.15275458
41	0x3e6730c1	0.22577192
42	0x3fce7bed	1.6131569
43	0xbd5319ef	-0.051538404
44	0xbd93a32c	-0.07208857
45	0xbeabe7dd	-0.33575335
46	0xbdb56c89	-0.08858592
47	0x3dd29335	0.10281984
48	0xbf093de6	-0.53610075
49	0xbf2ade7e	-0.66745746
50	0x3e0afb0c	0.1357233
51	0xbdc09c99	-0.09404869
52	0x3e0ec96c	0.13944024
53	0x3c86e32c	0.016465746
54	0xbe586f03	-0.21136098
55	0xbf53a159	-0.8266807
56	0xbd8dc56d	-0.069224216
57	0x3df472e2	0.11935975
58	0xbf0770c1	-0.52906424
59	0xbf009074	-0.5022042
60	0x3f3d9cf9	0.74067646
61	0x3d5dd582	0.054158695
62	0x3b47ba55	0.0030476053
63	0x3d2bf01a	0.041977026
64	0xbe6a1b64	-0.22862011
65	0x3cb446a5	0.022006342
66	0x3d257902	0.040398605
67	0xbe301d89	-0.17198767
68	0xbd1e06f4	-0.03858085
69	0xbf64a858	-0.8931937
70	0x3cc761fd	0.024338717
71	0xbd2153d9	-0.039386604
72	0xbe351796	-0.17684779
73	0x3d6c9ecb	0.057768624
74	0x3d0ed643	0.034872305
75	0xbdbf4ca4	-0.0934079
76	0xbd93075b	-0.07179137
77	0x3eede7ba	0.46465856
78	0x3d28c3fc	0.04120253
79	0x3d7b3987	0.06133416
80	0xba61f5b4	-0.00086196815
81	0xbc7b2732	-0.015329169
82	0x3d9c0e90	0.07619965
83	0xbd16a15f	-0.03677499
84	0xbda547c7	-0.08070331
85	0xbb5fd938	-0.0034156572
86	0x3d0efbef	0.03490823
87	0x3dae5d86	0.08513932
88	0xbeb5849c	-0.35452735
89	0x4016740b	2.3508327
90	0xbd119cbe	-0.03554987
91	0x3d9a07a2	0.07520987
92	0xbe265a65	-0.1624542
93	0x3f047bd8	0.5175147
94	0x40037232	2.053845
95	0x3deec975	0.11659519
96	0xbd364099	-0.0444952
97	0x3c5140e5	0.01277182
98	0xbf8b0b78	-1.0862875
99	0x3d70aff3	0.05876155
100	0xbd444906	-0.047921203
101	0xbd03d5c2	-0.032186277
102	0xbb0c64aa	-0.0021422305
103	0x3da0560c	0.07828912
104	0xbedcf1ad	-0.43153134
105	0x3f629a0a	0.88516295
106	0xbd717a7a	-0.058954693
107	0xbd6e2e04	-0.058149353
108	0x3dc20e2d	0.0947536
109	0x3f09ecc8	0.53876925
110	0xbcd21a46	-0.025647294
111	0x3df5c5aa	0.12000592
112	0x4008bd5c	2.1365576
113	0xbfc19115	-1.51224
114	0xbdc724d8	-0.09723824
115	0x3df8f1f8	0.12155527
116	0xbda05122	-0.07827975
117	0xbdea00a0	-0.114259005
118	0x3efd37b2	0.49456555
119	0x3f164079	0.5869213
120	0x3c99bf38	0.018767938
121	0xbdc0791a	-0.09398098
122	0x3e81d1ee	0.25355476
123	0x3e7a8954	0.24466449
124	0xbfb56b0f	-1.4173297
125	0xbbce41ea	-0.0062944787
126	0x3db6dda6	0.08928995
127	0x3d8bd6f4	0.068281084
128	0xbd90126a	-0.07034762
129	0x3cd4ca42	0.02597535
130	0x3d18dd8e	0.037320666
131	0xbe464bf3	-0.1936491
132	0x3c67fb6f	0.0141590675
133	0xbe082adb	-0.13297598
134	0x3dac37d6	0.08409087
135	0x3d832ffc	0.06405637
136	0xbdd6b1bb	-0.10483118
137	0xbda872fd	-0.08225057
138	0xbbc21ebb	-0.0059240735
139	0xbe1fd7ef	-0.15609716
140	0x3de8627a	0.11346908
141	0x3ec83e03	0.3910981
142	0x3cb0a8d3	0.021564877
143	0x3e044231	0.12915875
144	0x3d15a7ee	0.036537103
145	0x3d4c03b1	0.049808208
146	0xbddac945	-0.1068292
147	0x3d617d57	0.055051174
148	0x3e004158	0.12524927
149	0xbd55d151	-0.052201573
150	0xbd3f28e9	-0.046669874
151	0x3c176abf	0.009241759
152	0xbedd2760	-0.43194103
153	0x3e898e6d	0.26866475
154	0x3da034c3	0.078225635
155	0xbd9f0f55	-0.07766596
156	0xbb9b974d	-0.004748261
157	0xbcbadefa	-0.022811402
158	0x3cd105a2	0.025515381
159	0x3de6f2c3	0.11276772
160	0xbdeb27cc	-0.114822
161	0x3dbce9b1	0.092242606
162	0x3e6bf9cc	0.23044509
163	0xbda39616	-0.07987611
164	0x3d5e02d9	0.054201934
165	0x3c5972c0	0.013271987
166	0x3dbd6785	0.092482604
167	0xbdaa0485	-0.08301643
168	0xbee0cafd	-0.43904868
169	0x3e5cee44	0.21575266
170	0x3f9da7e9	1.2316867
171	0xbd35d0f3	-0.044388723
172	0x3dc54b2a	0.09633477
173	0x3f00672c	0.5015743
174	0xbd9aa044	-0.075500995
175	0xbdcb7ab3	-0.099355124
176	0xbdfae533	-0.122507475
177	0xbef86b02	-0.4851914
178	0x3dca795a	0.09886427
179	0xbe29a940	-0.1656847
180	0x3c4a79b4	0.012358118
181	0x3d80e8b4	0.062943846
182	0x3d8be3b1	0.06830538
183	0xbe83f073	-0.25769386
184	0x3bad9f7a	0.005298552
185	0x3d8c1442	0.06839801
186	0x3d3cd160	0.046098113
187	0xbdb5e69d	-0.088818766
188	0x3b8a34be	0.004217713
189	0xbd2a4906	-0.041573547
190	0x3d8d3b5b	0.06896087
191	0x3e3b593b	0.18295757
192	0xbe33109e	-0.17486808
193	0x3c7c119d	0.015385059
194	0xbd8e7846	-0.06956534
195	0x3c518bef	0.01278971
196	0xbc9f8bc0	-0.019475818
197	0xbfb7fb2e	-1.4373529
198	0xbc0212f6	-0.007939091
199	0xbcb1797e	-0.021664377
200	0x3c12edd3	0.0089678345
201	0x3d52a1db	0.05142389
202	0xbd7978d6	-0.060906254
203	0xbda713fc	-0.081581086
204	0xbd60e56f	-0.054906305
205	0xbeb88da9	-0.36045578
206	0xbdc98f07	-0.098417334
207	0x3ced55f4	0.02897165
208	0x3d2eba2d	0.04265802
209	0x3cacf1a7	0.021111323
210	0x3dc4011e	0.095705256
211	0x3daa3f44	0.08312848
212	0x3d959eff	0.07305717
213	0xbd9b8f37	-0.075956754
214	0xbd68ada3	-0.056806218
215	0x3c5b5280	0.013386369
216	0xbeba065f	-0.36332986
217	0xbea3f895	-0.3202559
218	0xbde2f77c	-0.1108236
219	0xbce319f1	-0.02772233
220	0x3d6fd80f	0.05855566
221	0xbeb3d018	-0.351197
222	0xbdead5f4	-0.114665896
223	0xbd8c9421	-0.06864191
224	0xbc60f1df	-0.013729542
225	0x3da36d90	0.07979882
226	0xbf450416	-0.7695936
227	0x3db0545f	0.086098425
228	0xbcb5615d	-0.022141153
229	0x3c444c04	0.011981014
230	0xbdb61f0a	-0.08892639
231	0x3d8aa0aa	0.067689255
232	0x3e80d370	0.25161314
233	0xbf4f889b	-0.8106782
234	0xbf122cb4	-0.5709946
235	0x3d60cb2c	0.05488126
236	0x3d233e58	0.039854378
237	0x3f8e1b14	1.1102014
238	0x3ccf9c51	0.025343092
239	0xbd8289bc	-0.06373927
240	0xbeb2862b	-0.34867987
241	0xbebf7ef8	-0.37401557
242	0x3df79f4f	0.120909326
243	0xbca496b4	-0.020091392
244	0x3c73ec91	0.014887945
245	0x3c454ec7	0.012042708
246	0xbf00f9a9	-0.5038095
247	0x3efd8d82	0.49522024
248	0x3dcc1e7c	0.09966752
249	0x3c29c361	0.010361523
250	0x3faaeccc	1.3353515
251	0xbebde334	-0.37087405
252	0xbf19a7ff	-0.60021967
253	0x3d49e8c8	0.049294263
254	0xbd3635b5	-0.044484813
255	0xbd806f15	-0.06271187

lstm1.weight_hh_l0 f4 [256, 64]
0	0x3f660d98	0.8986449
1	0xbf79a76f	-0.9752111
2	0xbee02897	-0.43780968
3	0xbe33739f	-0.17524575
4	0x3e041e7d	0.12902255
5	0xbf70d9f1	-0.9408255
6	0x3fd28853	1.6447853
7	0xbe96b3ab	-0.2943395
8	0xbfa66c1c	-1.3001742
9	0x3e17920b	0.14801805
10	0x3f774d24	0.9660208
11	0x3f85a8d8	1.0442152
12	0x3f8ed419	1.1158477
13	0x3fba796d	1.4568306
14	0xbf0b8c7f	-0.54511255
15	0x3fd125af	1.6339625
16	0x3ee4e3f2	0.44705158
17	0xbf5dab6b	-0.8658969
18	0x3f35dea1	0.7104283
19	0x3ef23ff5	0.4731442
20	0x3e8f5b2d	0.2799925
21	0xbe989c95	-0.29806963
22	0xbed2c715	-0.41167513
23	0xbf5ba909	-0.858048
24	0xbfc3202f	-1.5244197
25	0xbf980984	-1.1877904
26	0xbeda32b8	-0.4261682
27	0xbf0b71bc	-0.5447042
28	0x3f299b00	0.66252136
29	0x3e1c6d7b	0.15276138
30	0x3e2766b0	0.16347766
31	0xbf62b36c	-0.88555026
32	0x3f4b1fe0	0.7934551
33	0xbf690e1f	-0.9103717
34	0xbf3f624a	-0.7475935
35	0xbe929c35	-0.28634802
36	0xbebfb15e	-0.37440008
37	0x3d4afdb7	0.049558368
38	0x3effe5e7	0.4998009
39	0xbf7916c1	-0.97300345
40	0xbebbde6d	-0.36693135
41	0xbe5a1a0e	-0.21299002
42	0xbee0ae5d	-0.4388303
43	0x3e7d9c20	0.24766588
44	0x3f11ca31	0.56949145
45	0xbdb1bfa1	-0.086791284
46	0xbf76533a	-0.96220744
47	0xbf15ce28	-0.58517694
48	0xbbe5f173	-0.0070173084
49	0x3f6d5309	0.92704827
50	0xbfaa2ab8	-1.3294287
51	0x3f5eb3e4	0.8699324
52	0xbed3ea84	-0.4138986
53	0x3ef91cd5	0.4865481
54	0xbe3b7266	-0.18305358
55	0xbd287874	-0.041130498
56	0xbe9c05b1	-0.30473092
57	0x3e8b10a2	0.27161127
58	0x3e73c96c	0.23807305
59	0xbff5da69	-1.9207278
60	0x3f490b00	0.7853241
61	0x3f6e4c20	0.9308491
62	0x3f21f163	0.6325895
63	0x3cc56e0c	0.024100326
64	0xbc104159	-0.008804643
65	0x3edd73b1	0.43252328
66	0x3f5503fe	0.83209217
67	0xbf6f825c	-0.9355829
68	0x3f805560	1.0026054
69	0x3eebf44f	0.4608483
70	0x3f88dcf7	1.0692433
71	0xbf8eea23	-1.1165203
72	0xbe367e76	-0.17821679
73	0xc0326f11	-2.788029
74	0x3fe3db77	1.780135
75	0xbe83f7b0	-0.25774908
76	0x3f82264c	1.0167937
77	0x3eb52d14	0.35385954
78	0x3e23a9af	0.15982698
79	0x3f27d50a	0.65559447
80	0xbee2789e	-0.4423265
81	0x3fc79851	1.5593358
82	0x3f30bf35	0.6904176
83	0xbee88c3f	-0.454195
84	0xc018f92a	-2.3902078
85	0x3e0af824	0.1357122
86	0xbf6b43ee	-0.9190053
87	0x3e3f2644	0.18666941
88	0x3e770c5a	0.24125805
89	0xbe127df7	-0.14305864
90	0xbe222244	-0.15833384
91	0x3ddb0596	0.10694425
92	0xbf80b089	-1.0053874
93	0xbeb7a329	-0.3586667
94	0x3e8f776a	0.28020793
95	0x3ecf4b58	0.4048717
96	0xbf8b1225	-1.0864912
97	0x3e88668b	0.26640734
98	0x3fd1f2ac	1.6402183
99	0x3b8b2229	0.0042460156
100	0x3fa09ee8	1.2548494
101	0x3ddbce75	0.10732738
102	0x3fa6f902	1.3044741
103	0xbf9d0bb5	-1.2269198
104	0x3f78b040	0.97143936
105	0xbdf907ef	-0.12159716
106	0x3f7cf179	0.9880596
107	0x3e24b5b9	0.16084947
108	0x3f8e720b	1.1128553
109	0xbda036dc	-0.078229636
110	0xbf377ef3	-0.71678084
111	0xbf18cf57	-0.59691375
112	0xbf0ce5e6	-0.550383
113	0xbf92e4cb	-1.1476072
114	0x3f6c5374	0.9231484
115	0xbe32abbb	-0.17448322
116	0xbf45d2e9	-0.7727495
117	0xbef54667	-0.47905275
118	0x3e3442fb	0.17603676
119	0xbf470908	-0.77748156
120	0x3fa10589	1.2579814
121	0x3f376380	0.716362
122	0x3fe68ab4	1.8011079
123	0x3ec23662	0.37932116
124	0x3f8c3107	1.0952462
125	0xbeb75e3f	-0.35814092
126	0x3feb1a0f	1.8367327
127	0x3e07a6c7	0.13247214
128	0xbfa04bbf	-1.2523116
129	0x3fd1e54c	1.6398101
130	0xbf405771	-0.75133425
131	0xbf71d027	-0.9445824
132	0x3fbe070e	1.4845903
133	0xbf3b3b38	-0.73137236
134	0xbe93a600	-0.28837585
135	0x3f3b7644	0.73227334
136	0xbda4f72c	-0.08054957
137	0x3f78adb6	0.9714006
138	0xbedc1bf8	-0.42990088
139	0x3c796d80	0.015223861
140	0xbcaa969e	-0.020823773
141	0x3f6839c5	0.9071315
142	0x3f26de17	0.6518263
143	0x3fbf726d	1.4956795
144	0x3e6b4f7c	0.2297954
145	0xbf4ef15a	-0.80837023
146	0xbeafd06f	-0.3433871
147	0xbf94e594	-1.1632562
148	0x3f386c9e	0.72040737
149	0xbde88eff	-0.11355399
150	0xbeba09ef	-0.36335704
151	0xbe512881	-0.20425607
152	0xbe213a70	-0.15744948
153	0xbfeec53c	-1.8653941
154	0x3fb34abc	1.4007182
155	0xbefb73da	-0.49111825
156	0x3f819091	1.0122243
157	0xbfaa6918	-1.3313322
158	0xbeb6bd3f	-0.35691258
159	0xbef0bd96	-0.47019643
160	0x3e1721c3	0.14758973
161	0x3f19109b	0.5979096
162	0x3f7f1797	0.9964537
163	0xbebd6513	-0.36991176
164	0xbf62aa0c	-0.8854072
165	0x3f16442f	0.5869779
166	0xc003da59	-2.060202
167	0x3f37267f	0.71543115
168	0xbc0cb3e7	-0.008587814
169	0xbe024da2	-0.12724927
170	0x4008ffcd	2.1406128
171	0x3df7cce3	0.12099626
172	0x3f53b098	0.82691336
173	0xbef9149f	-0.48648545
174	0xbedc2bdd	-0.43002215
175	0x3fa10059	1.2578231
176	0xbfd91c19	-1.69617
177	0x3fc009e9	1.5003024
178	0x3fcddf11	1.60837
179	0x3fc5e551	1.5460607
180	0x3ee86290	0.45387697
181	0x3f6be45b	0.9214532
182	0x3f4665b7	0.77498955
183	0xbdb7a820	-0.08967614
184	0x3f5f7366	0.8728546
185	0x3f070abc	0.52750754
186	0x3f9319bc	1.1492229
187	0x3fc58521	1.5431253
188	0xbe5330af	-0.2062404
189	0xbf73e6ab	-0.95273846
190	0xbecd563d	-0.40104857
191	0xbf5008c2	-0.81263363
192	0x3fcd66b8	1.6046972
193	0x3fc44eb8	1.5336523
194	0x3fb18cb1	1.3871061
195	0xbf950e5a	-1.1645005
196	0xbd3a490b	-0.045479815
197	0x3fa7515a	1.3071702
198	0x40355e39	2.833876
199	0x3f06c2fc	0.5264127
200	0xbf5562f4	-0.83354115
201	0xbe301749	-0.17196383
202	0xbed4c471	-0.41556123
203	0xbe5aee41	-0.21379949
204	0xbf0fc28c	-0.5615623
205	0x402f40ba	2.7383256
206	0x3fdb8e00	1.715271
207	0x3ce0dbef	0.027448623
208	0xbf98b5df	-1.1930503
209	0x3ee0e8cf	0.4392762
210	0xbff685a0	-1.9259529
211	0x3e8f4fb6	0.27990502
212	0x3ff6ed5a	1.9291184
213	0x3f8e3044	1.110848
214	0x3ddd1a7e	0.107960686
215	0x3f1512a2	0.58231556
216	0xbfd64839	-1.6740791
217	0xbee0537a	-0.43813688
218	0x3fb2435d	1.3926808
219	0x3f5ac19a	0.8545166
220	0x3f00d18f	0.5031976
221	0xbef9ea2f	-0.4881148
222	0xbf290b24	-0.66032624
223	0xc027ca63	-2.6217277
224	0xbe9afa8e	-0.30269283
225	0x3f0ae341	0.5425301
226	0x3ec61664	0.38688958
227	0x3fcf3e87	1.6190957
228	0xbf10294e	-0.56313026
229	0x3d96c4c4	0.07361749
230	0x3fb13467	1.3844117
231	0x3ec95b38	0.39327407
232	0xbfbc5625	-1.4713789
233	0x3f9878f5	1.1911913
234	0x3f0a9c4c	0.5414474
235	0x3f8d5c50	1.1043797
236	0x3f624591	0.883874
237	0xbd80fe56	-0.06298511
238	0x3fac90cc	1.3481688
239	0x3ec1a59f	0.3782167
240	0x3f11f090	0.57007694
241	0xbf8e48e6	-1.1115997
242	0xc00cf920	-2.2027054
243	0xbf4b9a26	-0.79532087
244	0x3f86acc4	1.0521474
245	0x402697ac	2.6030073
246	0xc007f137	-2.1240976
247	0x3f5fa533	0.8736145
248	0xbf40138b	-0.7502982
249	0xbfc40649	-1.5314418
250	0xbe9ac49f	-0.30228135
251	0x3d882173	0.06647005
252	0xbf673387	-0.90313
253	0x3fc40184	1.5312963
254	0xbeab37a6	-0.33440894
255	0xbd396fd3	-0.04527266

lstm1.bias_ih_l0 f4 [256]
0	0xbf1f55ca	-0.6224028
1	0x3e33fa13	0.17575864
2	0xbfd9d549	-1.7018214
3	0xbf0c04ee	-0.5469502
4	0xbf3f4e54	-0.74728894
5	0xbf8848e0	-1.064724
6	0xbeca899f	-0.39558122
7	0xbf9f79d6	-1.2459056
8	0xbd3f1702	-0.0466528
9	0xbfa9cec6	-1.3266227
10	0xbf7f751c	-0.9978807
11	0xbf22fa85	-0.6366351
12	0xbf039c07	-0.51409954
13	0xbf546484	-0.82965875
14	0xbf1f9494	-0.6233609
15	0xbed9c5a1	-0.4253359
16	0xbf82566e	-1.0182626
17	0xbea5ee05	-0.32408157
18	0xbf8f1e19	-1.118106
19	0xbf10b8d6	-0.5653204
20	0xbf8cc040	-1.099617
21	0xbed6fdf7	-0.41990635
22	0xbeef7823	-0.46771345
23	0xbf304a36	-0.68863237
24	0xbf1ff465	-0.6248229
25	0xbfb0cb30	-1.3812008
26	0xbbfc0e86	-0.007692161
27	0xbf0a253d	-0.5396307
28	0xbf782c36	-0.9694246
29	0xbf000d74	-0.5002053
30	0xbf0097de	-0.5023173
31	0xbf4d53ef	-0.802062
32	0xbf7c3eae	-0.9853314
33	0xbf3f806b	-0.74805325
34	0xbf0cfa39	-0.5506931
35	0xbf5a35a9	-0.8523813
36	0xbdfc0b2f	-0.123068206
37	0xbf1a981a	-0.6038834
38	0xbe6cadab	-0.23113124
39	0xbf5edf63	-0.8705961
40	0xbf1f1d83	-0.62154406
41	0xbfb62e73	-1.4232925
42	0xbf4cc275	-0.7998422
43	0xbb9bc221	-0.0047533666
44	0xbf44f640	-0.7693825
45	0xbf6aa5d2	-0.9165927
46	0xbf438618	-0.76376486
47	0xbf10e8cc	-0.5660522
48	0xbf8d2724	-1.102757
49	0xbd1c9f8c	-0.038238093
50	0xbf781e17	-0.96920913
51	0xbf566f82	-0.837639
52	0xbfcd1f25	-1.602513
53	0xbf2d17a6	-0.6761421
54	0xbfabd6d8	-1.342494
55	0xbe16a04f	-0.1470959
56	0xbe2e618c	-0.17029399
57	0xbf054d60	-0.5207119
58	0xbfc0da1c	-1.5066562
59	0xbf191eb7	-0.5981249
60	0xbf4500fc	-0.7695463
61	0xbf98d28b	-1.1939253
62	0xbee3fd9e	-0.44529432
63	0xbfe93010	-1.8217793
64	0x3e7641b5	0.24048503
65	0xbf8f6eb3	-1.1205658
66	0x3f9b39e8	1.2127047
67	0x3d939015	0.07205216
68	0xbf24f568	-0.6443696
69	0x3eb4afd0	0.35290384
70	0xbf418b6f	-0.75603384
71	0xbf0234a4	-0.50861573
72	0x3d52abee	0.051433496
73	0xbf759c06	-0.959412
74	0xbed643c3	-0.41848573
75	0xbd63d261	-0.055620555
76	0x3f06bdf9	0.52633625
77	0xbf0dc449	-0.5537763
78	0xbefc97ea	-0.4933465
79	0xbe8edc26	-0.27902335
80	0xbdc8f7d8	-0.098128974
81	0xbd54edf9	-0.05198476
82	0xbfbb8018	-1.4648466
83	0xbfb00ff0	-1.3754864
84	0x3f475f5a	0.7787987
85	0xbd55f3c0	-0.05223441
86	0xbf06d172	-0.5266334
87	0xbf98d8cc	-1.1941161
88	0xbd8d8a7d	-0.0691118
89	0xbf41ad27	-0.75654835
90	0x3e5bfc33	0.21482925
91	0x3dc948b7	0.098283224
92	0xbdf7b537	-0.12095111
93	0xbeb32712	-0.34990746
94	0xbf02462d	-0.5088833
95	0xbf0f649b	-0.56012887
96	0xbf4eb294	-0.8074124
97	0x3e9c64b9	0.30545595
98	0xbec218ea	-0.37909633
99	0xbe8ddd73	-0.27708015
100	0xbf748ffb	-0.95532197
101	0xbf0f4697	-0.55967087
102	0xbf2d746e	-0.6775578
103	0xbf5195f6	-0.8186945
104	0xbecc24d0	-0.39871836
105	0x3e8a5e8f	0.27025267
106	0xbf1457ba	-0.5794636
107	0xbf6b2fa9	-0.918696
108	0xbe0c0dc9	-0.13677134
109	0x3e32380e	0.17404196
110	0x3e91faef	0.2851176
111	0x3d97bb2f	0.07408749
112	0xbf26e3fe	-0.6519164
113	0xbe977627	-0.2958233
114	0xbf5ded90	-0.86690617
115	0xb8d074da	-9.939978e-05
116	0x3f6b9c66	0.9203552
117	0xbfd19151	-1.6372472
118	0x3f0027d7	0.5006079
119	0xbf430915	-0.76185733
120	0xbf6f6e16	-0.9352735
121	0xbebbeeeb	-0.36705717
122	0x3f51c417	0.81939834
123	0xbe5907ae	-0.21194336
124	0xbecbdfc9	-0.39819172
125	0xbf32911c	-0.6975267
126	0xbea3a9cd	-0.31965485
127	0x3fbdcfd4	1.4829049
128	0xbece839c	-0.40334785
129	0xbf4861d8	-0.782743
130	0x3d60c84c	0.054878518
131	0xbeba4962	-0.36384112
132	0xbd59bd6d	-0.053159166
133	0xbf552068	-0.83252573
134	0xbf80ea64	-1.007153
135	0x3ee547c0	0.44781303
136	0x3f6ee88d	0.93323594
137	0xbdb064c7	-0.08612972
138	0xbe99d827	-0.30047724
139	0x3e8f3bb4	0.27975237
140	0x3ede431e	0.4341058
141	0x3f68dd09	0.9096227
142	0x3e3a571d	0.18197294
143	0xbe56e425	-0.20985468
144	0xbecd8372	-0.40139347
145	0x3e465990	0.19370103
146	0xbe3b0355	-0.1826299
147	0x3e79227e	0.24329564
148	0x3eafedf6	0.34361237
149	0xbd85d9cb	-0.06535681
150	0xbd94c14a	-0.072634295
151	0xbe5b61df	-0.21424054
152	0xbef6e864	-0.48224175
153	0x3f69ee7f	0.9137954
154	0xbe7785cd	-0.24172135
155	0x3e97c80d	0.29644814
156	0x3e967fe3	0.29394445
157	0xbe6d74a1	-0.23189022
158	0x3ea0f463	0.31436452
159	0x3ebe31c6	0.3714735
160	0xbe8ec812	-0.27887017
161	0xbedfc248	-0.43702912
162	0xbf1a1c2c	-0.60199237
163	0xbef9d79d	-0.48797312
164	0xbef85bac	-0.4850744
165	0xbee1e2f8	-0.44118476
166	0xbef1f322	-0.47255808
167	0x3ef94e2c	0.48692453
168	0x3e692c35	0.2277077
169	0xbed30a44	-0.4121877
170	0xbf194916	-0.59877145
171	0x3f0ed261	0.5578976
172	0xbe1719ce	-0.14755937
173	0xbeb2c275	-0.34913984
174	0x3d8b020c	0.067875
175	0xbd2821dd	-0.04104792
176	0x3c1b92c0	0.009495437
177	0xbf1a8151	-0.6035357
178	0xbe7eab81	-0.24870111
179	0x3f4885b5	0.7832902
180	0xbca850cc	-0.02054634
181	0xbf449716	-0.7679304
182	0xbe854f87	-0.26037237
183	0xbed1fd61	-0.41013625
184	0x3f155a54	0.58340955
185	0xbee2e254	-0.443133
186	0xbef9c0d7	-0.48779938
187	0x3e532a00	0.2062149
188	0xbe13380d	-0.1437685
189	0x3e994ed7	0.29942963
190	0x3ed3331c	0.4124993
191	0xbee631c6	-0.4495985
192	0x3eb86c93	0.36020336
193	0xbef8fd35	-0.48630682
194	0xbcbd3612	-0.023097072
195	0xbec599b7	-0.38593838
196	0xbf4862bb	-0.7827565
197	0xbf206450	-0.62653065
198	0xbede6098	-0.4343307
199	0xbf8d0032	-1.1015685
200	0xbcf8c1f3	-0.03036592
201	0xbf82c170	-1.0215282
202	0x3e34e7e3	0.17666583
203	0xbec62c75	-0.38705793
204	0xbf2079fa	-0.6268612
205	0xbf619f1b	-0.881334
206	0xbecc051d	-0.3984765
207	0xbe6782d7	-0.22608505
208	0xbf85259e	-1.0402105
209	0xbf0aa174	-0.5415261
210	0xbf8188ab	-1.0119833
211	0xbf922bab	-1.1419576
212	0xbf201f4f	-0.62547773
213	0xbed93070	-0.42419767
214	0xbf55971a	-0.8343369
215	0xbf8c41ab	-1.095754
216	0xbe3aa42e	-0.18226692
217	0xbf98b874	-1.1931291
218	0xbedf81fe	-0.43653864
219	0xbec2131f	-0.37905213
220	0xbec5b80c	-0.3861698
221	0xbf00d73b	-0.50328416
222	0xbf305c6c	-0.68891025
223	0xbf3f4222	-0.74710286
224	0xbf2394e9	-0.63899094
225	0xbf876580	-1.057785
226	0xbf2c9b7d	-0.67424756
227	0xbe832e32	-0.25621182
228	0xbe814d9a	-0.25254518
229	0xbfb2a37d	-1.3956143
230	0xbee549a5	-0.4478275
231	0xbf941544	-1.156899
232	0xbf449176	-0.76784456
233	0xbe0df748	-0.13863862
234	0xbedea339	-0.43483904
235	0xbeef3706	-0.46721667
236	0xbf38d669	-0.72202164
237	0xbf6229b7	-0.883449
238	0xbf80e72c	-1.0070548
239	0xbf8c3b2b	-1.0955557
240	0xbf3c9de3	-0.73678416
241	0xbf216895	-0.63050205
242	0xbf594e3b	-0.84884995
243	0xbf44c146	-0.7685741
244	0xbd0be66e	-0.0341553
245	0xbe61167e	-0.21981236
246	0x3ed7e488	0.42166543
247	0xbf38cf17	-0.72190994
248	0xbee64ab8	-0.4497888
249	0xbecaac17	-0.3958442
250	0x3ed00c55	0.4063441
251	0xbf17fc01	-0.593689
252	0xbf5c387a	-0.86023676
253	0xbf549f32	-0.8305541
254	0xbf02cd58	-0.5109458
255	0x3db27d96	0.0871536

lstm1.bias_hh_l0 f4 [256]
0	0xbf470328	-0.7773919
1	0x3dc567e0	0.09638953
2	0xbfdd320b	-1.7280897
3	0xbf16363c	-0.58676505
4	0xbf44f7b0	-0.7694044
5	0xbf75e04c	-0.96045375
6	0xbef7a04d	-0.48364487
7	0xbf8d6ed8	-1.1049452
8	0xbe554c38	-0.20829856
9	0xbfa9fdc0	-1.3280563
10	0xbf85d1a4	-1.0454602
11	0xbf21eca5	-0.63251716
12	0xbf18716f	-0.59548086
13	0xbf628c9c	-0.884958
14	0xbf084e30	-0.53244305
15	0xbeca8497	-0.39554283
16	0xbf8665f5	-1.0499865
17	0xbec72c47	-0.38900968
18	0xbf94a75f	-1.1613578
19	0xbf04e9d0	-0.5191927
20	0xbf860ea0	-1.0473213
21	0xbf032c8d	-0.51239854
22	0xbe9dfcd1	-0.30856946
23	0xbf331d2c	-0.6996639
24	0xbf0e700d	-0.55639726
25	0xbfaae490	-1.3351002
26	0xbe303682	-0.17208293
27	0xbf2205be	-0.6329001
28	0xbf69e804	-0.9136965
29	0xbf1ceafb	-0.6129605
30	0xbf258abb	-0.6466481
31	0xbf7d1abd	-0.98868924
32	0xbf69ed08	-0.91377306
33	0xbf589ec7	-0.84617275
34	0xbf0bf3b1	-0.5466872
35	0xbf3a7c61	-0.7284604
36	0xbdf6ed4f	-0.12056982
37	0xbeefdac6	-0.46846598
38	0xbe46901b	-0.1939091
39	0xbf77c16b	-0.9677951
40	0xbeeb8252	-0.45997864
41	0xbfae58d3	-1.3620857
42	0xbf622c59	-0.8834892
43	0x3c1a57b5	0.009420325
44	0xbf5ae410	-0.85504246
45	0xbf591f56	-0.8481344
46	0xbf22da14	-0.6361401
47	0xbf20cb48	-0.6281018
48	0xbf71f48f	-0.9451379
49	0x3c3106a0	0.010804802
50	0xbf4f8e21	-0.81076247
51	0xbf7d84ba	-0.9903065
52	0xbfd8d5a3	-1.6940197
53	0xbf1d4a86	-0.6144184
54	0xbfb5a26a	-1.419019
55	0x3d3c869f	0.046026822
56	0xbe89ead7	-0.2693698
57	0xbf1f68f6	-0.6226953
58	0xbfbe3858	-1.4860945
59	0xbeebae61	-0.46031478
60	0xbf43e87a	-0.76526606
61	0xbf812776	-1.0090168
62	0xbef164e6	-0.47147292
63	0xbfd64126	-1.6738632
64	0x3dc0d651	0.094158776
65	0xbf6b3d77	-0.9189066
66	0x3f9195bc	1.137382
67	0x3e63b470	0.222368
68	0xbf2633a2	-0.64922535
69	0x3ec08fa2	0.37609583
70	0xbf4660db	-0.7749154
71	0xbee4b0e1	-0.44666198
72	0xbe092c52	-0.13395813
73	0xbf7d21a7	-0.98879474
74	0xbf26d406	-0.6516727
75	0xbbf4671e	-0.0074585816
76	0x3eceafd9	0.40368536
77	0xbf03366c	-0.51254916
78	0xbefa8f60	-0.4893751
79	0xbe9528de	-0.29132742
80	0xbdf29cd3	-0.11846318
81	0x3c5d3ee1	0.013503761
82	0xbfb224b4	-1.3917451
83	0xbfa9d54c	-1.3268218
84	0x3f4b2000	0.79345703
85	0xbdbc381e	-0.09190391
86	0xbf285b33	-0.6576416
87	0xbf818f39	-1.0121833
88	0x3c99eea9	0.01879056
89	0xbf45c5a9	-0.7725473
90	0x3df225a1	0.118235834
91	0x3d53286a	0.051552214
92	0xbe9af69b	-0.3026627
93	0xbf05d413	-0.52276725
94	0xbf1b77a2	-0.6072942
95	0xbf16f42f	-0.58966345
96	0xbf6fea86	-0.9371723
97	0x3e83291e	0.25617307
98	0xbef03d32	-0.46921688
99	0xbf00c534	-0.5030091
100	0xbf5c0eb3	-0.8595993
101	0xbf0d3abc	-0.55167747
102	0xbf5c6bcc	-0.86101985
103	0xbf475736	-0.7786745
104	0xbf033953	-0.51259345
105	0x3e371997	0.17880856
106	0xbf0e0270	-0.5547247
107	0xbf7a41d4	-0.97756696
108	0xbd1c97ee	-0.03823083
109	0x3e4312ec	0.19050187
110	0x3eeaeba1	0.45882896
111	0x3e219c86	0.15782365
112	0xbf077bba	-0.52923167
113	0xbee97ebf	-0.45604512
114	0xbf80d907	-1.0066231
115	0x3d9f7770	0.07786453
116	0x3f7ffc6d	0.99994546
117	0xbfc42053	-1.5322365
118	0x3efe78e4	0.49701607
119	0xbf553b07	-0.83293194
120	0xbf90adcb	-1.1303037
121	0xbecc499f	-0.39899918
122	0x3f53320d	0.82498246
123	0xbe86d090	-0.26330996
124	0xbe703ecc	-0.23461455
125	0xbf0d021c	-0.55081344
126	0xbeb5c947	-0.35505125
127	0x3fc6a280	1.5518341
128	0xbf0f7db4	-0.5605118
129	0xbf4945d4	-0.78622174
130	0xbd09c72a	-0.033637203
131	0xbe76b3e3	-0.24092059
132	0xbdb8d123	-0.09024265
133	0xbf4b0104	-0.79298425
134	0xbf8de10a	-1.1084301
135	0x3ef7661a	0.48320085
136	0x3f56c2c9	0.8389097
137	0xbe8b0f71	-0.27160218
138	0xbe170b12	-0.14750317
139	0x3ed5b534	0.4173981
140	0x3edd3d0e	0.43210644
141	0x3f8e60de	1.1123312
142	0x3e73303f	0.23748873
143	0xbe551b57	-0.2081121
144	0xbed89564	-0.42301476
145	0x3ebb4652	0.36577088
146	0xbe851122	-0.25989634
147	0x3e00b236	0.12567982
148	0x3e89486d	0.2681307
149	0xbdd05414	-0.10172287
150	0xbe875e50	-0.26439142
151	0xbe498d1b	-0.19682734
152	0xbe9878af	-0.29779574
153	0x3f812d2c	1.009191
154	0xbede566d	-0.43425313
155	0x3e439aca	0.19102016
156	0x3e4b7920	0.19870424
157	0xbc92d7cf	-0.017925171
158	0x3ed4eb73	0.41585883
159	0x3e5b188e	0.21396086
160	0xbe87bf81	-0.26513293
161	0xbec3d98a	-0.38251907
162	0xbf19fd2c	-0.60151935
163	0xbf0c84bc	-0.54890037
164	0xbef1e584	-0.4724542
165	0xbede7b02	-0.43453223
166	0xbe8e9ecd	-0.2785553
167	0x3ebd8c95	0.37021318
168	0x3ecc2777	0.3987386
169	0xbe921bb6	-0.28536767
170	0xbf21c316	-0.631883
171	0x3eb4f264	0.3534118
172	0xbe1da852	-0.1539624
173	0xbeaad04b	-0.3336204
174	0x3cd20982	0.0256393
175	0xbd2296c2	-0.039694555
176	0xbd239ddc	-0.03994547
177	0xbf19da3b	-0.6009862
178	0xbebad434	-0.36490023
179	0x3f1a4ac7	0.6027035
180	0xbdfae89c	-0.12251398
181	0xbf162336	-0.5864748
182	0xbe4329c4	-0.19058901
183	0xbf097187	-0.53688854
184	0x3ed1501d	0.40881434
185	0xbec6544a	-0.38736182
186	0xbf204752	-0.62608826
187	0x3e9a9611	0.30192617
188	0x3c9148fd	0.017734999
189	0x3e4cf8ef	0.20016836
190	0x3f187fb7	0.5956988
191	0xbf1597cb	-0.5843474
192	0x3ec1796b	0.37787947
193	0xbf30b6e2	-0.6902906
194	0xbdd36678	-0.10322279
195	0xbeab9e57	-0.3351924
196	0xbf6e69af	-0.9313001
197	0xbf01d0f4	-0.5070946
198	0xbf06f461	-0.5271664
199	0xbf872c31	-1.0560361
200	0x3ca705d4	0.020388521
201	0xbf52548a	-0.82160246
202	0x3dda28d5	0.10652319
203	0xbed82b37	-0.4222047
204	0xbf3778f8	-0.7166896
205	0xbf5624bb	-0.83649796
206	0xbe84e7ab	-0.25958
207	0xbedd11fd	-0.43177786
208	0xbf9c865e	-1.2228506
209	0xbed38e6e	-0.41319603
210	0xbf736db6	-0.9508928
211	0xbf894761	-1.0724908
212	0xbf026482	-0.5093461
213	0xbf1c7627	-0.61117786
214	0xbf5f54c8	-0.8723874
215	0xbfa5588f	-1.2917651
216	0xbe80585e	-0.2506742
217	0xbf908c3e	-1.1292799
218	0xbece05e4	-0.4023887
219	0xbe689119	-0.227116
220	0xbeec3f18	-0.46141887
221	0xbf1f4945	-0.62221175
222	0xbf1646a2	-0.5870153
223	0xbf32aed0	-0.6979799
224	0xbf1d8e19	-0.6154495
225	0xbf887cb2	-1.0663054
226	0xbf33249d	-0.6997774
227	0xbea27346	-0.31728572
228	0xbe54c987	-0.20780002
229	0xbfb5221f	-1.4151038
230	0xbf09f5dc	-0.53890777
231	0xbf9a2a76	-1.2044208
232	0xbf4cbbdc	-0.7997415
233	0xbe968f7f	-0.29406354
234	0xbf245432	-0.6419097
235	0xbf0833ce	-0.5320405
236	0xbf0c9f5f	-0.5493068
237	0xbf624965	-0.8839324
238	0xbf8494f3	-1.0357956
239	0xbf8a639b	-1.0811647
240	0xbf3c2215	-0.73489505
241	0xbf31f717	-0.69517654
242	0xbf561aeb	-0.83634824
243	0xbf506b1a	-0.81413424
244	0x3dd7701d	0.10519431
245	0xbd14ee18	-0.036359876
246	0x3e941c5c	0.28927886
247	0xbf540a65	-0.8282836
248	0xbf04ddb0	-0.5190077
249	0xbf07f608	-0.5310979
250	0x3ed57a99	0.41695097
251	0xbf349977	-0.7054667
252	0xbf3d77a0	-0.7401066
253	0xbf77f3fa	-0.96856654
254	0xbf213d12	-0.6298381
255	0x3d9881ef	0.07446658
